{
  "modelTopology": {
    "node": [
      {
        "input": [],
        "attr": {
          "value": {
            "tensor": {
              "floatVal": [],
              "doubleVal": [],
              "intVal": [],
              "stringVal": [],
              "scomplexVal": [],
              "int64Val": [],
              "boolVal": [],
              "uint32Val": [],
              "uint64Val": [],
              "dtype": 1,
              "tensorShape": {
                "dim": []
              }
            }
          },
          "dtype": {
            "type": 1
          }
        },
        "name": "ConstantFolding/Postprocessor/Decode/div_recip",
        "op": "Const"
      },
      {
        "input": [],
        "attr": {
          "value": {
            "tensor": {
              "floatVal": [],
              "doubleVal": [],
              "intVal": [],
              "stringVal": [],
              "scomplexVal": [],
              "int64Val": [],
              "boolVal": [],
              "uint32Val": [],
              "uint64Val": [],
              "dtype": 1,
              "tensorShape": {
                "dim": [
                  {
                    "size": "1"
                  },
                  {
                    "size": "1917"
                  },
                  {
                    "size": "4"
                  }
                ]
              }
            }
          },
          "dtype": {
            "type": 1
          }
        },
        "name": "Postprocessor/ExpandDims",
        "op": "Const"
      },
      {
        "input": [],
        "attr": {
          "value": {
            "tensor": {
              "floatVal": [],
              "doubleVal": [],
              "intVal": [],
              "stringVal": [],
              "scomplexVal": [],
              "int64Val": [],
              "boolVal": [],
              "uint32Val": [],
              "uint64Val": [],
              "dtype": 1,
              "tensorShape": {
                "dim": []
              }
            }
          },
          "dtype": {
            "type": 1
          }
        },
        "name": "ConstantFolding/Postprocessor/Decode/div_4_recip",
        "op": "Const"
      },
      {
        "input": [],
        "attr": {
          "dtype": {
            "type": 3
          },
          "value": {
            "tensor": {
              "floatVal": [],
              "doubleVal": [],
              "intVal": [],
              "stringVal": [],
              "scomplexVal": [],
              "int64Val": [],
              "boolVal": [],
              "uint32Val": [],
              "uint64Val": [],
              "dtype": 3,
              "tensorShape": {
                "dim": [
                  {
                    "size": "2"
                  }
                ]
              }
            }
          }
        },
        "name": "Postprocessor/Reshape_1/shape",
        "op": "Const"
      },
      {
        "input": [],
        "attr": {
          "value": {
            "tensor": {
              "floatVal": [],
              "doubleVal": [],
              "intVal": [],
              "stringVal": [],
              "scomplexVal": [],
              "int64Val": [],
              "boolVal": [],
              "uint32Val": [],
              "uint64Val": [],
              "dtype": 1,
              "tensorShape": {
                "dim": []
              }
            }
          },
          "dtype": {
            "type": 1
          }
        },
        "name": "ConstantFolding/Postprocessor/Decode/div_2_recip",
        "op": "Const"
      },
      {
        "input": [],
        "attr": {
          "value": {
            "tensor": {
              "floatVal": [],
              "doubleVal": [],
              "intVal": [],
              "stringVal": [],
              "scomplexVal": [],
              "int64Val": [],
              "boolVal": [],
              "uint32Val": [],
              "uint64Val": [],
              "dtype": 1,
              "tensorShape": {
                "dim": [
                  {
                    "size": "3"
                  },
                  {
                    "size": "3"
                  },
                  {
                    "size": "576"
                  },
                  {
                    "size": "1"
                  }
                ]
              }
            }
          },
          "dtype": {
            "type": 1
          }
        },
        "name": "BoxPredictor_0/BoxEncodingPredictor_depthwise/depthwise_weights",
        "op": "Const"
      },
      {
        "input": [],
        "attr": {
          "value": {
            "tensor": {
              "floatVal": [],
              "doubleVal": [],
              "intVal": [],
              "stringVal": [],
              "scomplexVal": [],
              "int64Val": [],
              "boolVal": [],
              "uint32Val": [],
              "uint64Val": [],
              "dtype": 1,
              "tensorShape": {
                "dim": [
                  {
                    "size": "576"
                  }
                ]
              }
            }
          },
          "dtype": {
            "type": 1
          }
        },
        "name": "BoxPredictor_0/BoxEncodingPredictor_depthwise/BatchNorm/gamma",
        "op": "Const"
      },
      {
        "input": [],
        "attr": {
          "value": {
            "tensor": {
              "floatVal": [],
              "doubleVal": [],
              "intVal": [],
              "stringVal": [],
              "scomplexVal": [],
              "int64Val": [],
              "boolVal": [],
              "uint32Val": [],
              "uint64Val": [],
              "dtype": 1,
              "tensorShape": {
                "dim": [
                  {
                    "size": "576"
                  }
                ]
              }
            }
          },
          "dtype": {
            "type": 1
          }
        },
        "name": "BoxPredictor_0/BoxEncodingPredictor_depthwise/BatchNorm/beta",
        "op": "Const"
      },
      {
        "input": [],
        "attr": {
          "value": {
            "tensor": {
              "floatVal": [],
              "doubleVal": [],
              "intVal": [],
              "stringVal": [],
              "scomplexVal": [],
              "int64Val": [],
              "boolVal": [],
              "uint32Val": [],
              "uint64Val": [],
              "dtype": 1,
              "tensorShape": {
                "dim": [
                  {
                    "size": "576"
                  }
                ]
              }
            }
          },
          "dtype": {
            "type": 1
          }
        },
        "name": "BoxPredictor_0/BoxEncodingPredictor_depthwise/BatchNorm/moving_mean",
        "op": "Const"
      },
      {
        "input": [],
        "attr": {
          "value": {
            "tensor": {
              "floatVal": [],
              "doubleVal": [],
              "intVal": [],
              "stringVal": [],
              "scomplexVal": [],
              "int64Val": [],
              "boolVal": [],
              "uint32Val": [],
              "uint64Val": [],
              "dtype": 1,
              "tensorShape": {
                "dim": [
                  {
                    "size": "576"
                  }
                ]
              }
            }
          },
          "dtype": {
            "type": 1
          }
        },
        "name": "BoxPredictor_0/BoxEncodingPredictor_depthwise/BatchNorm/moving_variance",
        "op": "Const"
      },
      {
        "input": [],
        "attr": {
          "value": {
            "tensor": {
              "floatVal": [],
              "doubleVal": [],
              "intVal": [],
              "stringVal": [],
              "scomplexVal": [],
              "int64Val": [],
              "boolVal": [],
              "uint32Val": [],
              "uint64Val": [],
              "dtype": 1,
              "tensorShape": {
                "dim": [
                  {
                    "size": "1"
                  },
                  {
                    "size": "1"
                  },
                  {
                    "size": "576"
                  },
                  {
                    "size": "12"
                  }
                ]
              }
            }
          },
          "dtype": {
            "type": 1
          }
        },
        "name": "BoxPredictor_0/BoxEncodingPredictor/weights",
        "op": "Const"
      },
      {
        "input": [],
        "attr": {
          "value": {
            "tensor": {
              "floatVal": [],
              "doubleVal": [],
              "intVal": [],
              "stringVal": [],
              "scomplexVal": [],
              "int64Val": [],
              "boolVal": [],
              "uint32Val": [],
              "uint64Val": [],
              "dtype": 1,
              "tensorShape": {
                "dim": [
                  {
                    "size": "12"
                  }
                ]
              }
            }
          },
          "dtype": {
            "type": 1
          }
        },
        "name": "BoxPredictor_0/BoxEncodingPredictor/biases",
        "op": "Const"
      },
      {
        "input": [],
        "attr": {
          "value": {
            "tensor": {
              "floatVal": [],
              "doubleVal": [],
              "intVal": [],
              "stringVal": [],
              "scomplexVal": [],
              "int64Val": [],
              "boolVal": [],
              "uint32Val": [],
              "uint64Val": [],
              "dtype": 1,
              "tensorShape": {
                "dim": [
                  {
                    "size": "3"
                  },
                  {
                    "size": "3"
                  },
                  {
                    "size": "1280"
                  },
                  {
                    "size": "1"
                  }
                ]
              }
            }
          },
          "dtype": {
            "type": 1
          }
        },
        "name": "BoxPredictor_1/BoxEncodingPredictor_depthwise/depthwise_weights",
        "op": "Const"
      },
      {
        "input": [],
        "attr": {
          "value": {
            "tensor": {
              "floatVal": [],
              "doubleVal": [],
              "intVal": [],
              "stringVal": [],
              "scomplexVal": [],
              "int64Val": [],
              "boolVal": [],
              "uint32Val": [],
              "uint64Val": [],
              "dtype": 1,
              "tensorShape": {
                "dim": [
                  {
                    "size": "1280"
                  }
                ]
              }
            }
          },
          "dtype": {
            "type": 1
          }
        },
        "name": "BoxPredictor_1/BoxEncodingPredictor_depthwise/BatchNorm/gamma",
        "op": "Const"
      },
      {
        "input": [],
        "attr": {
          "value": {
            "tensor": {
              "floatVal": [],
              "doubleVal": [],
              "intVal": [],
              "stringVal": [],
              "scomplexVal": [],
              "int64Val": [],
              "boolVal": [],
              "uint32Val": [],
              "uint64Val": [],
              "dtype": 1,
              "tensorShape": {
                "dim": [
                  {
                    "size": "1280"
                  }
                ]
              }
            }
          },
          "dtype": {
            "type": 1
          }
        },
        "name": "BoxPredictor_1/BoxEncodingPredictor_depthwise/BatchNorm/beta",
        "op": "Const"
      },
      {
        "input": [],
        "attr": {
          "value": {
            "tensor": {
              "floatVal": [],
              "doubleVal": [],
              "intVal": [],
              "stringVal": [],
              "scomplexVal": [],
              "int64Val": [],
              "boolVal": [],
              "uint32Val": [],
              "uint64Val": [],
              "dtype": 1,
              "tensorShape": {
                "dim": [
                  {
                    "size": "1280"
                  }
                ]
              }
            }
          },
          "dtype": {
            "type": 1
          }
        },
        "name": "BoxPredictor_1/BoxEncodingPredictor_depthwise/BatchNorm/moving_mean",
        "op": "Const"
      },
      {
        "input": [],
        "attr": {
          "value": {
            "tensor": {
              "floatVal": [],
              "doubleVal": [],
              "intVal": [],
              "stringVal": [],
              "scomplexVal": [],
              "int64Val": [],
              "boolVal": [],
              "uint32Val": [],
              "uint64Val": [],
              "dtype": 1,
              "tensorShape": {
                "dim": [
                  {
                    "size": "1280"
                  }
                ]
              }
            }
          },
          "dtype": {
            "type": 1
          }
        },
        "name": "BoxPredictor_1/BoxEncodingPredictor_depthwise/BatchNorm/moving_variance",
        "op": "Const"
      },
      {
        "input": [],
        "attr": {
          "value": {
            "tensor": {
              "floatVal": [],
              "doubleVal": [],
              "intVal": [],
              "stringVal": [],
              "scomplexVal": [],
              "int64Val": [],
              "boolVal": [],
              "uint32Val": [],
              "uint64Val": [],
              "dtype": 1,
              "tensorShape": {
                "dim": [
                  {
                    "size": "1"
                  },
                  {
                    "size": "1"
                  },
                  {
                    "size": "1280"
                  },
                  {
                    "size": "24"
                  }
                ]
              }
            }
          },
          "dtype": {
            "type": 1
          }
        },
        "name": "BoxPredictor_1/BoxEncodingPredictor/weights",
        "op": "Const"
      },
      {
        "input": [],
        "attr": {
          "value": {
            "tensor": {
              "floatVal": [],
              "doubleVal": [],
              "intVal": [],
              "stringVal": [],
              "scomplexVal": [],
              "int64Val": [],
              "boolVal": [],
              "uint32Val": [],
              "uint64Val": [],
              "dtype": 1,
              "tensorShape": {
                "dim": [
                  {
                    "size": "24"
                  }
                ]
              }
            }
          },
          "dtype": {
            "type": 1
          }
        },
        "name": "BoxPredictor_1/BoxEncodingPredictor/biases",
        "op": "Const"
      },
      {
        "input": [],
        "attr": {
          "value": {
            "tensor": {
              "floatVal": [],
              "doubleVal": [],
              "intVal": [],
              "stringVal": [],
              "scomplexVal": [],
              "int64Val": [],
              "boolVal": [],
              "uint32Val": [],
              "uint64Val": [],
              "dtype": 1,
              "tensorShape": {
                "dim": [
                  {
                    "size": "3"
                  },
                  {
                    "size": "3"
                  },
                  {
                    "size": "512"
                  },
                  {
                    "size": "1"
                  }
                ]
              }
            }
          },
          "dtype": {
            "type": 1
          }
        },
        "name": "BoxPredictor_2/BoxEncodingPredictor_depthwise/depthwise_weights",
        "op": "Const"
      },
      {
        "input": [],
        "attr": {
          "dtype": {
            "type": 1
          },
          "value": {
            "tensor": {
              "floatVal": [],
              "doubleVal": [],
              "intVal": [],
              "stringVal": [],
              "scomplexVal": [],
              "int64Val": [],
              "boolVal": [],
              "uint32Val": [],
              "uint64Val": [],
              "dtype": 1,
              "tensorShape": {
                "dim": [
                  {
                    "size": "512"
                  }
                ]
              }
            }
          }
        },
        "name": "BoxPredictor_2/BoxEncodingPredictor_depthwise/BatchNorm/gamma",
        "op": "Const"
      },
      {
        "input": [],
        "attr": {
          "value": {
            "tensor": {
              "floatVal": [],
              "doubleVal": [],
              "intVal": [],
              "stringVal": [],
              "scomplexVal": [],
              "int64Val": [],
              "boolVal": [],
              "uint32Val": [],
              "uint64Val": [],
              "dtype": 1,
              "tensorShape": {
                "dim": [
                  {
                    "size": "512"
                  }
                ]
              }
            }
          },
          "dtype": {
            "type": 1
          }
        },
        "name": "BoxPredictor_2/BoxEncodingPredictor_depthwise/BatchNorm/beta",
        "op": "Const"
      },
      {
        "input": [],
        "attr": {
          "dtype": {
            "type": 1
          },
          "value": {
            "tensor": {
              "floatVal": [],
              "doubleVal": [],
              "intVal": [],
              "stringVal": [],
              "scomplexVal": [],
              "int64Val": [],
              "boolVal": [],
              "uint32Val": [],
              "uint64Val": [],
              "dtype": 1,
              "tensorShape": {
                "dim": [
                  {
                    "size": "512"
                  }
                ]
              }
            }
          }
        },
        "name": "BoxPredictor_2/BoxEncodingPredictor_depthwise/BatchNorm/moving_mean",
        "op": "Const"
      },
      {
        "input": [],
        "attr": {
          "value": {
            "tensor": {
              "floatVal": [],
              "doubleVal": [],
              "intVal": [],
              "stringVal": [],
              "scomplexVal": [],
              "int64Val": [],
              "boolVal": [],
              "uint32Val": [],
              "uint64Val": [],
              "dtype": 1,
              "tensorShape": {
                "dim": [
                  {
                    "size": "512"
                  }
                ]
              }
            }
          },
          "dtype": {
            "type": 1
          }
        },
        "name": "BoxPredictor_2/BoxEncodingPredictor_depthwise/BatchNorm/moving_variance",
        "op": "Const"
      },
      {
        "input": [],
        "attr": {
          "value": {
            "tensor": {
              "floatVal": [],
              "doubleVal": [],
              "intVal": [],
              "stringVal": [],
              "scomplexVal": [],
              "int64Val": [],
              "boolVal": [],
              "uint32Val": [],
              "uint64Val": [],
              "dtype": 1,
              "tensorShape": {
                "dim": [
                  {
                    "size": "1"
                  },
                  {
                    "size": "1"
                  },
                  {
                    "size": "512"
                  },
                  {
                    "size": "24"
                  }
                ]
              }
            }
          },
          "dtype": {
            "type": 1
          }
        },
        "name": "BoxPredictor_2/BoxEncodingPredictor/weights",
        "op": "Const"
      },
      {
        "input": [],
        "attr": {
          "value": {
            "tensor": {
              "floatVal": [],
              "doubleVal": [],
              "intVal": [],
              "stringVal": [],
              "scomplexVal": [],
              "int64Val": [],
              "boolVal": [],
              "uint32Val": [],
              "uint64Val": [],
              "dtype": 1,
              "tensorShape": {
                "dim": [
                  {
                    "size": "24"
                  }
                ]
              }
            }
          },
          "dtype": {
            "type": 1
          }
        },
        "name": "BoxPredictor_2/BoxEncodingPredictor/biases",
        "op": "Const"
      },
      {
        "input": [],
        "attr": {
          "dtype": {
            "type": 1
          },
          "value": {
            "tensor": {
              "floatVal": [],
              "doubleVal": [],
              "intVal": [],
              "stringVal": [],
              "scomplexVal": [],
              "int64Val": [],
              "boolVal": [],
              "uint32Val": [],
              "uint64Val": [],
              "dtype": 1,
              "tensorShape": {
                "dim": [
                  {
                    "size": "3"
                  },
                  {
                    "size": "3"
                  },
                  {
                    "size": "256"
                  },
                  {
                    "size": "1"
                  }
                ]
              }
            }
          }
        },
        "name": "BoxPredictor_3/BoxEncodingPredictor_depthwise/depthwise_weights",
        "op": "Const"
      },
      {
        "input": [],
        "attr": {
          "value": {
            "tensor": {
              "floatVal": [],
              "doubleVal": [],
              "intVal": [],
              "stringVal": [],
              "scomplexVal": [],
              "int64Val": [],
              "boolVal": [],
              "uint32Val": [],
              "uint64Val": [],
              "dtype": 1,
              "tensorShape": {
                "dim": [
                  {
                    "size": "256"
                  }
                ]
              }
            }
          },
          "dtype": {
            "type": 1
          }
        },
        "name": "BoxPredictor_3/BoxEncodingPredictor_depthwise/BatchNorm/gamma",
        "op": "Const"
      },
      {
        "input": [],
        "attr": {
          "value": {
            "tensor": {
              "floatVal": [],
              "doubleVal": [],
              "intVal": [],
              "stringVal": [],
              "scomplexVal": [],
              "int64Val": [],
              "boolVal": [],
              "uint32Val": [],
              "uint64Val": [],
              "dtype": 1,
              "tensorShape": {
                "dim": [
                  {
                    "size": "256"
                  }
                ]
              }
            }
          },
          "dtype": {
            "type": 1
          }
        },
        "name": "BoxPredictor_3/BoxEncodingPredictor_depthwise/BatchNorm/beta",
        "op": "Const"
      },
      {
        "input": [],
        "attr": {
          "dtype": {
            "type": 1
          },
          "value": {
            "tensor": {
              "floatVal": [],
              "doubleVal": [],
              "intVal": [],
              "stringVal": [],
              "scomplexVal": [],
              "int64Val": [],
              "boolVal": [],
              "uint32Val": [],
              "uint64Val": [],
              "dtype": 1,
              "tensorShape": {
                "dim": [
                  {
                    "size": "256"
                  }
                ]
              }
            }
          }
        },
        "name": "BoxPredictor_3/BoxEncodingPredictor_depthwise/BatchNorm/moving_mean",
        "op": "Const"
      },
      {
        "input": [],
        "attr": {
          "value": {
            "tensor": {
              "floatVal": [],
              "doubleVal": [],
              "intVal": [],
              "stringVal": [],
              "scomplexVal": [],
              "int64Val": [],
              "boolVal": [],
              "uint32Val": [],
              "uint64Val": [],
              "dtype": 1,
              "tensorShape": {
                "dim": [
                  {
                    "size": "256"
                  }
                ]
              }
            }
          },
          "dtype": {
            "type": 1
          }
        },
        "name": "BoxPredictor_3/BoxEncodingPredictor_depthwise/BatchNorm/moving_variance",
        "op": "Const"
      },
      {
        "input": [],
        "attr": {
          "value": {
            "tensor": {
              "floatVal": [],
              "doubleVal": [],
              "intVal": [],
              "stringVal": [],
              "scomplexVal": [],
              "int64Val": [],
              "boolVal": [],
              "uint32Val": [],
              "uint64Val": [],
              "dtype": 1,
              "tensorShape": {
                "dim": [
                  {
                    "size": "1"
                  },
                  {
                    "size": "1"
                  },
                  {
                    "size": "256"
                  },
                  {
                    "size": "24"
                  }
                ]
              }
            }
          },
          "dtype": {
            "type": 1
          }
        },
        "name": "BoxPredictor_3/BoxEncodingPredictor/weights",
        "op": "Const"
      },
      {
        "input": [],
        "attr": {
          "value": {
            "tensor": {
              "floatVal": [],
              "doubleVal": [],
              "intVal": [],
              "stringVal": [],
              "scomplexVal": [],
              "int64Val": [],
              "boolVal": [],
              "uint32Val": [],
              "uint64Val": [],
              "dtype": 1,
              "tensorShape": {
                "dim": [
                  {
                    "size": "24"
                  }
                ]
              }
            }
          },
          "dtype": {
            "type": 1
          }
        },
        "name": "BoxPredictor_3/BoxEncodingPredictor/biases",
        "op": "Const"
      },
      {
        "input": [],
        "attr": {
          "value": {
            "tensor": {
              "floatVal": [],
              "doubleVal": [],
              "intVal": [],
              "stringVal": [],
              "scomplexVal": [],
              "int64Val": [],
              "boolVal": [],
              "uint32Val": [],
              "uint64Val": [],
              "dtype": 1,
              "tensorShape": {
                "dim": [
                  {
                    "size": "3"
                  },
                  {
                    "size": "3"
                  },
                  {
                    "size": "256"
                  },
                  {
                    "size": "1"
                  }
                ]
              }
            }
          },
          "dtype": {
            "type": 1
          }
        },
        "name": "BoxPredictor_4/BoxEncodingPredictor_depthwise/depthwise_weights",
        "op": "Const"
      },
      {
        "input": [],
        "attr": {
          "value": {
            "tensor": {
              "floatVal": [],
              "doubleVal": [],
              "intVal": [],
              "stringVal": [],
              "scomplexVal": [],
              "int64Val": [],
              "boolVal": [],
              "uint32Val": [],
              "uint64Val": [],
              "dtype": 1,
              "tensorShape": {
                "dim": [
                  {
                    "size": "256"
                  }
                ]
              }
            }
          },
          "dtype": {
            "type": 1
          }
        },
        "name": "BoxPredictor_4/BoxEncodingPredictor_depthwise/BatchNorm/gamma",
        "op": "Const"
      },
      {
        "input": [],
        "attr": {
          "value": {
            "tensor": {
              "floatVal": [],
              "doubleVal": [],
              "intVal": [],
              "stringVal": [],
              "scomplexVal": [],
              "int64Val": [],
              "boolVal": [],
              "uint32Val": [],
              "uint64Val": [],
              "dtype": 1,
              "tensorShape": {
                "dim": [
                  {
                    "size": "256"
                  }
                ]
              }
            }
          },
          "dtype": {
            "type": 1
          }
        },
        "name": "BoxPredictor_4/BoxEncodingPredictor_depthwise/BatchNorm/beta",
        "op": "Const"
      },
      {
        "input": [],
        "attr": {
          "value": {
            "tensor": {
              "floatVal": [],
              "doubleVal": [],
              "intVal": [],
              "stringVal": [],
              "scomplexVal": [],
              "int64Val": [],
              "boolVal": [],
              "uint32Val": [],
              "uint64Val": [],
              "dtype": 1,
              "tensorShape": {
                "dim": [
                  {
                    "size": "256"
                  }
                ]
              }
            }
          },
          "dtype": {
            "type": 1
          }
        },
        "name": "BoxPredictor_4/BoxEncodingPredictor_depthwise/BatchNorm/moving_mean",
        "op": "Const"
      },
      {
        "input": [],
        "attr": {
          "value": {
            "tensor": {
              "floatVal": [],
              "doubleVal": [],
              "intVal": [],
              "stringVal": [],
              "scomplexVal": [],
              "int64Val": [],
              "boolVal": [],
              "uint32Val": [],
              "uint64Val": [],
              "dtype": 1,
              "tensorShape": {
                "dim": [
                  {
                    "size": "256"
                  }
                ]
              }
            }
          },
          "dtype": {
            "type": 1
          }
        },
        "name": "BoxPredictor_4/BoxEncodingPredictor_depthwise/BatchNorm/moving_variance",
        "op": "Const"
      },
      {
        "input": [],
        "attr": {
          "value": {
            "tensor": {
              "floatVal": [],
              "doubleVal": [],
              "intVal": [],
              "stringVal": [],
              "scomplexVal": [],
              "int64Val": [],
              "boolVal": [],
              "uint32Val": [],
              "uint64Val": [],
              "dtype": 1,
              "tensorShape": {
                "dim": [
                  {
                    "size": "1"
                  },
                  {
                    "size": "1"
                  },
                  {
                    "size": "256"
                  },
                  {
                    "size": "24"
                  }
                ]
              }
            }
          },
          "dtype": {
            "type": 1
          }
        },
        "name": "BoxPredictor_4/BoxEncodingPredictor/weights",
        "op": "Const"
      },
      {
        "input": [],
        "attr": {
          "value": {
            "tensor": {
              "floatVal": [],
              "doubleVal": [],
              "intVal": [],
              "stringVal": [],
              "scomplexVal": [],
              "int64Val": [],
              "boolVal": [],
              "uint32Val": [],
              "uint64Val": [],
              "dtype": 1,
              "tensorShape": {
                "dim": [
                  {
                    "size": "24"
                  }
                ]
              }
            }
          },
          "dtype": {
            "type": 1
          }
        },
        "name": "BoxPredictor_4/BoxEncodingPredictor/biases",
        "op": "Const"
      },
      {
        "input": [],
        "attr": {
          "value": {
            "tensor": {
              "floatVal": [],
              "doubleVal": [],
              "intVal": [],
              "stringVal": [],
              "scomplexVal": [],
              "int64Val": [],
              "boolVal": [],
              "uint32Val": [],
              "uint64Val": [],
              "dtype": 1,
              "tensorShape": {
                "dim": [
                  {
                    "size": "3"
                  },
                  {
                    "size": "3"
                  },
                  {
                    "size": "128"
                  },
                  {
                    "size": "1"
                  }
                ]
              }
            }
          },
          "dtype": {
            "type": 1
          }
        },
        "name": "BoxPredictor_5/BoxEncodingPredictor_depthwise/depthwise_weights",
        "op": "Const"
      },
      {
        "input": [],
        "attr": {
          "value": {
            "tensor": {
              "floatVal": [],
              "doubleVal": [],
              "intVal": [],
              "stringVal": [],
              "scomplexVal": [],
              "int64Val": [],
              "boolVal": [],
              "uint32Val": [],
              "uint64Val": [],
              "dtype": 1,
              "tensorShape": {
                "dim": [
                  {
                    "size": "128"
                  }
                ]
              }
            }
          },
          "dtype": {
            "type": 1
          }
        },
        "name": "BoxPredictor_5/BoxEncodingPredictor_depthwise/BatchNorm/gamma",
        "op": "Const"
      },
      {
        "input": [],
        "attr": {
          "value": {
            "tensor": {
              "floatVal": [],
              "doubleVal": [],
              "intVal": [],
              "stringVal": [],
              "scomplexVal": [],
              "int64Val": [],
              "boolVal": [],
              "uint32Val": [],
              "uint64Val": [],
              "dtype": 1,
              "tensorShape": {
                "dim": [
                  {
                    "size": "128"
                  }
                ]
              }
            }
          },
          "dtype": {
            "type": 1
          }
        },
        "name": "BoxPredictor_5/BoxEncodingPredictor_depthwise/BatchNorm/beta",
        "op": "Const"
      },
      {
        "input": [],
        "attr": {
          "value": {
            "tensor": {
              "floatVal": [],
              "doubleVal": [],
              "intVal": [],
              "stringVal": [],
              "scomplexVal": [],
              "int64Val": [],
              "boolVal": [],
              "uint32Val": [],
              "uint64Val": [],
              "dtype": 1,
              "tensorShape": {
                "dim": [
                  {
                    "size": "128"
                  }
                ]
              }
            }
          },
          "dtype": {
            "type": 1
          }
        },
        "name": "BoxPredictor_5/BoxEncodingPredictor_depthwise/BatchNorm/moving_mean",
        "op": "Const"
      },
      {
        "input": [],
        "attr": {
          "dtype": {
            "type": 1
          },
          "value": {
            "tensor": {
              "floatVal": [],
              "doubleVal": [],
              "intVal": [],
              "stringVal": [],
              "scomplexVal": [],
              "int64Val": [],
              "boolVal": [],
              "uint32Val": [],
              "uint64Val": [],
              "dtype": 1,
              "tensorShape": {
                "dim": [
                  {
                    "size": "128"
                  }
                ]
              }
            }
          }
        },
        "name": "BoxPredictor_5/BoxEncodingPredictor_depthwise/BatchNorm/moving_variance",
        "op": "Const"
      },
      {
        "input": [],
        "attr": {
          "value": {
            "tensor": {
              "floatVal": [],
              "doubleVal": [],
              "intVal": [],
              "stringVal": [],
              "scomplexVal": [],
              "int64Val": [],
              "boolVal": [],
              "uint32Val": [],
              "uint64Val": [],
              "dtype": 1,
              "tensorShape": {
                "dim": [
                  {
                    "size": "1"
                  },
                  {
                    "size": "1"
                  },
                  {
                    "size": "128"
                  },
                  {
                    "size": "24"
                  }
                ]
              }
            }
          },
          "dtype": {
            "type": 1
          }
        },
        "name": "BoxPredictor_5/BoxEncodingPredictor/weights",
        "op": "Const"
      },
      {
        "input": [],
        "attr": {
          "value": {
            "tensor": {
              "floatVal": [],
              "doubleVal": [],
              "intVal": [],
              "stringVal": [],
              "scomplexVal": [],
              "int64Val": [],
              "boolVal": [],
              "uint32Val": [],
              "uint64Val": [],
              "dtype": 1,
              "tensorShape": {
                "dim": [
                  {
                    "size": "24"
                  }
                ]
              }
            }
          },
          "dtype": {
            "type": 1
          }
        },
        "name": "BoxPredictor_5/BoxEncodingPredictor/biases",
        "op": "Const"
      },
      {
        "input": [],
        "attr": {
          "value": {
            "tensor": {
              "floatVal": [],
              "doubleVal": [],
              "intVal": [
                1917
              ],
              "stringVal": [],
              "scomplexVal": [],
              "int64Val": [],
              "boolVal": [],
              "uint32Val": [],
              "uint64Val": [],
              "dtype": 3,
              "tensorShape": {
                "dim": []
              }
            }
          },
          "dtype": {
            "type": 3
          }
        },
        "name": "MultipleGridAnchorGenerator/assert_equal/x",
        "op": "Const"
      },
      {
        "input": [],
        "attr": {
          "value": {
            "tensor": {
              "floatVal": [],
              "doubleVal": [],
              "intVal": [
                4
              ],
              "stringVal": [],
              "scomplexVal": [],
              "int64Val": [],
              "boolVal": [],
              "uint32Val": [],
              "uint64Val": [],
              "dtype": 3,
              "tensorShape": {
                "dim": []
              }
            }
          },
          "dtype": {
            "type": 3
          }
        },
        "name": "BoxPredictor_0/stack/3",
        "op": "Const"
      },
      {
        "input": [],
        "attr": {
          "value": {
            "tensor": {
              "floatVal": [],
              "doubleVal": [],
              "intVal": [
                2
              ],
              "stringVal": [],
              "scomplexVal": [],
              "int64Val": [],
              "boolVal": [],
              "uint32Val": [],
              "uint64Val": [],
              "dtype": 3,
              "tensorShape": {
                "dim": []
              }
            }
          },
          "dtype": {
            "type": 3
          }
        },
        "name": "Postprocessor/ExpandDims_1/dim",
        "op": "Const"
      },
      {
        "input": [],
        "attr": {
          "value": {
            "tensor": {
              "floatVal": [],
              "doubleVal": [],
              "intVal": [],
              "stringVal": [],
              "scomplexVal": [],
              "int64Val": [],
              "boolVal": [],
              "uint32Val": [],
              "uint64Val": [],
              "dtype": 1,
              "tensorShape": {
                "dim": [
                  {
                    "size": "3"
                  },
                  {
                    "size": "3"
                  },
                  {
                    "size": "576"
                  },
                  {
                    "size": "1"
                  }
                ]
              }
            }
          },
          "dtype": {
            "type": 1
          }
        },
        "name": "BoxPredictor_0/ClassPredictor_depthwise/depthwise_weights",
        "op": "Const"
      },
      {
        "input": [],
        "attr": {
          "dtype": {
            "type": 1
          },
          "value": {
            "tensor": {
              "floatVal": [],
              "doubleVal": [],
              "intVal": [],
              "stringVal": [],
              "scomplexVal": [],
              "int64Val": [],
              "boolVal": [],
              "uint32Val": [],
              "uint64Val": [],
              "dtype": 1,
              "tensorShape": {
                "dim": [
                  {
                    "size": "576"
                  }
                ]
              }
            }
          }
        },
        "name": "BoxPredictor_0/ClassPredictor_depthwise/BatchNorm/gamma",
        "op": "Const"
      },
      {
        "input": [],
        "attr": {
          "value": {
            "tensor": {
              "floatVal": [],
              "doubleVal": [],
              "intVal": [],
              "stringVal": [],
              "scomplexVal": [],
              "int64Val": [],
              "boolVal": [],
              "uint32Val": [],
              "uint64Val": [],
              "dtype": 1,
              "tensorShape": {
                "dim": [
                  {
                    "size": "576"
                  }
                ]
              }
            }
          },
          "dtype": {
            "type": 1
          }
        },
        "name": "BoxPredictor_0/ClassPredictor_depthwise/BatchNorm/beta",
        "op": "Const"
      },
      {
        "input": [],
        "attr": {
          "dtype": {
            "type": 1
          },
          "value": {
            "tensor": {
              "floatVal": [],
              "doubleVal": [],
              "intVal": [],
              "stringVal": [],
              "scomplexVal": [],
              "int64Val": [],
              "boolVal": [],
              "uint32Val": [],
              "uint64Val": [],
              "dtype": 1,
              "tensorShape": {
                "dim": [
                  {
                    "size": "576"
                  }
                ]
              }
            }
          }
        },
        "name": "BoxPredictor_0/ClassPredictor_depthwise/BatchNorm/moving_mean",
        "op": "Const"
      },
      {
        "input": [],
        "attr": {
          "value": {
            "tensor": {
              "floatVal": [],
              "doubleVal": [],
              "intVal": [],
              "stringVal": [],
              "scomplexVal": [],
              "int64Val": [],
              "boolVal": [],
              "uint32Val": [],
              "uint64Val": [],
              "dtype": 1,
              "tensorShape": {
                "dim": [
                  {
                    "size": "576"
                  }
                ]
              }
            }
          },
          "dtype": {
            "type": 1
          }
        },
        "name": "BoxPredictor_0/ClassPredictor_depthwise/BatchNorm/moving_variance",
        "op": "Const"
      },
      {
        "input": [],
        "attr": {
          "value": {
            "tensor": {
              "floatVal": [],
              "doubleVal": [],
              "intVal": [],
              "stringVal": [],
              "scomplexVal": [],
              "int64Val": [],
              "boolVal": [],
              "uint32Val": [],
              "uint64Val": [],
              "dtype": 1,
              "tensorShape": {
                "dim": [
                  {
                    "size": "1"
                  },
                  {
                    "size": "1"
                  },
                  {
                    "size": "576"
                  },
                  {
                    "size": "273"
                  }
                ]
              }
            }
          },
          "dtype": {
            "type": 1
          }
        },
        "name": "BoxPredictor_0/ClassPredictor/weights",
        "op": "Const"
      },
      {
        "input": [],
        "attr": {
          "dtype": {
            "type": 1
          },
          "value": {
            "tensor": {
              "floatVal": [],
              "doubleVal": [],
              "intVal": [],
              "stringVal": [],
              "scomplexVal": [],
              "int64Val": [],
              "boolVal": [],
              "uint32Val": [],
              "uint64Val": [],
              "dtype": 1,
              "tensorShape": {
                "dim": [
                  {
                    "size": "273"
                  }
                ]
              }
            }
          }
        },
        "name": "BoxPredictor_0/ClassPredictor/biases",
        "op": "Const"
      },
      {
        "input": [],
        "attr": {
          "value": {
            "tensor": {
              "floatVal": [],
              "doubleVal": [],
              "intVal": [
                1083
              ],
              "stringVal": [],
              "scomplexVal": [],
              "int64Val": [],
              "boolVal": [],
              "uint32Val": [],
              "uint64Val": [],
              "dtype": 3,
              "tensorShape": {
                "dim": []
              }
            }
          },
          "dtype": {
            "type": 3
          }
        },
        "name": "BoxPredictor_0/stack/1",
        "op": "Const"
      },
      {
        "input": [],
        "attr": {
          "value": {
            "tensor": {
              "floatVal": [],
              "doubleVal": [],
              "intVal": [],
              "stringVal": [],
              "scomplexVal": [],
              "int64Val": [],
              "boolVal": [],
              "uint32Val": [],
              "uint64Val": [],
              "dtype": 1,
              "tensorShape": {
                "dim": [
                  {
                    "size": "3"
                  },
                  {
                    "size": "3"
                  },
                  {
                    "size": "1280"
                  },
                  {
                    "size": "1"
                  }
                ]
              }
            }
          },
          "dtype": {
            "type": 1
          }
        },
        "name": "BoxPredictor_1/ClassPredictor_depthwise/depthwise_weights",
        "op": "Const"
      },
      {
        "input": [],
        "attr": {
          "value": {
            "tensor": {
              "floatVal": [],
              "doubleVal": [],
              "intVal": [],
              "stringVal": [],
              "scomplexVal": [],
              "int64Val": [],
              "boolVal": [],
              "uint32Val": [],
              "uint64Val": [],
              "dtype": 1,
              "tensorShape": {
                "dim": [
                  {
                    "size": "1280"
                  }
                ]
              }
            }
          },
          "dtype": {
            "type": 1
          }
        },
        "name": "BoxPredictor_1/ClassPredictor_depthwise/BatchNorm/gamma",
        "op": "Const"
      },
      {
        "input": [],
        "attr": {
          "value": {
            "tensor": {
              "floatVal": [],
              "doubleVal": [],
              "intVal": [],
              "stringVal": [],
              "scomplexVal": [],
              "int64Val": [],
              "boolVal": [],
              "uint32Val": [],
              "uint64Val": [],
              "dtype": 1,
              "tensorShape": {
                "dim": [
                  {
                    "size": "1280"
                  }
                ]
              }
            }
          },
          "dtype": {
            "type": 1
          }
        },
        "name": "BoxPredictor_1/ClassPredictor_depthwise/BatchNorm/beta",
        "op": "Const"
      },
      {
        "input": [],
        "attr": {
          "value": {
            "tensor": {
              "floatVal": [],
              "doubleVal": [],
              "intVal": [],
              "stringVal": [],
              "scomplexVal": [],
              "int64Val": [],
              "boolVal": [],
              "uint32Val": [],
              "uint64Val": [],
              "dtype": 1,
              "tensorShape": {
                "dim": [
                  {
                    "size": "1280"
                  }
                ]
              }
            }
          },
          "dtype": {
            "type": 1
          }
        },
        "name": "BoxPredictor_1/ClassPredictor_depthwise/BatchNorm/moving_mean",
        "op": "Const"
      },
      {
        "input": [],
        "attr": {
          "value": {
            "tensor": {
              "floatVal": [],
              "doubleVal": [],
              "intVal": [],
              "stringVal": [],
              "scomplexVal": [],
              "int64Val": [],
              "boolVal": [],
              "uint32Val": [],
              "uint64Val": [],
              "dtype": 1,
              "tensorShape": {
                "dim": [
                  {
                    "size": "1280"
                  }
                ]
              }
            }
          },
          "dtype": {
            "type": 1
          }
        },
        "name": "BoxPredictor_1/ClassPredictor_depthwise/BatchNorm/moving_variance",
        "op": "Const"
      },
      {
        "input": [],
        "attr": {
          "value": {
            "tensor": {
              "floatVal": [],
              "doubleVal": [],
              "intVal": [],
              "stringVal": [],
              "scomplexVal": [],
              "int64Val": [],
              "boolVal": [],
              "uint32Val": [],
              "uint64Val": [],
              "dtype": 1,
              "tensorShape": {
                "dim": [
                  {
                    "size": "1"
                  },
                  {
                    "size": "1"
                  },
                  {
                    "size": "1280"
                  },
                  {
                    "size": "546"
                  }
                ]
              }
            }
          },
          "dtype": {
            "type": 1
          }
        },
        "name": "BoxPredictor_1/ClassPredictor/weights",
        "op": "Const"
      },
      {
        "input": [],
        "attr": {
          "value": {
            "tensor": {
              "floatVal": [],
              "doubleVal": [],
              "intVal": [],
              "stringVal": [],
              "scomplexVal": [],
              "int64Val": [],
              "boolVal": [],
              "uint32Val": [],
              "uint64Val": [],
              "dtype": 1,
              "tensorShape": {
                "dim": [
                  {
                    "size": "546"
                  }
                ]
              }
            }
          },
          "dtype": {
            "type": 1
          }
        },
        "name": "BoxPredictor_1/ClassPredictor/biases",
        "op": "Const"
      },
      {
        "input": [],
        "attr": {
          "value": {
            "tensor": {
              "floatVal": [],
              "doubleVal": [],
              "intVal": [
                600
              ],
              "stringVal": [],
              "scomplexVal": [],
              "int64Val": [],
              "boolVal": [],
              "uint32Val": [],
              "uint64Val": [],
              "dtype": 3,
              "tensorShape": {
                "dim": []
              }
            }
          },
          "dtype": {
            "type": 3
          }
        },
        "name": "BoxPredictor_1/stack/1",
        "op": "Const"
      },
      {
        "input": [],
        "attr": {
          "dtype": {
            "type": 1
          },
          "value": {
            "tensor": {
              "floatVal": [],
              "doubleVal": [],
              "intVal": [],
              "stringVal": [],
              "scomplexVal": [],
              "int64Val": [],
              "boolVal": [],
              "uint32Val": [],
              "uint64Val": [],
              "dtype": 1,
              "tensorShape": {
                "dim": [
                  {
                    "size": "3"
                  },
                  {
                    "size": "3"
                  },
                  {
                    "size": "512"
                  },
                  {
                    "size": "1"
                  }
                ]
              }
            }
          }
        },
        "name": "BoxPredictor_2/ClassPredictor_depthwise/depthwise_weights",
        "op": "Const"
      },
      {
        "input": [],
        "attr": {
          "value": {
            "tensor": {
              "floatVal": [],
              "doubleVal": [],
              "intVal": [],
              "stringVal": [],
              "scomplexVal": [],
              "int64Val": [],
              "boolVal": [],
              "uint32Val": [],
              "uint64Val": [],
              "dtype": 1,
              "tensorShape": {
                "dim": [
                  {
                    "size": "512"
                  }
                ]
              }
            }
          },
          "dtype": {
            "type": 1
          }
        },
        "name": "BoxPredictor_2/ClassPredictor_depthwise/BatchNorm/gamma",
        "op": "Const"
      },
      {
        "input": [],
        "attr": {
          "value": {
            "tensor": {
              "floatVal": [],
              "doubleVal": [],
              "intVal": [],
              "stringVal": [],
              "scomplexVal": [],
              "int64Val": [],
              "boolVal": [],
              "uint32Val": [],
              "uint64Val": [],
              "dtype": 1,
              "tensorShape": {
                "dim": [
                  {
                    "size": "512"
                  }
                ]
              }
            }
          },
          "dtype": {
            "type": 1
          }
        },
        "name": "BoxPredictor_2/ClassPredictor_depthwise/BatchNorm/beta",
        "op": "Const"
      },
      {
        "input": [],
        "attr": {
          "value": {
            "tensor": {
              "floatVal": [],
              "doubleVal": [],
              "intVal": [],
              "stringVal": [],
              "scomplexVal": [],
              "int64Val": [],
              "boolVal": [],
              "uint32Val": [],
              "uint64Val": [],
              "dtype": 1,
              "tensorShape": {
                "dim": [
                  {
                    "size": "512"
                  }
                ]
              }
            }
          },
          "dtype": {
            "type": 1
          }
        },
        "name": "BoxPredictor_2/ClassPredictor_depthwise/BatchNorm/moving_mean",
        "op": "Const"
      },
      {
        "input": [],
        "attr": {
          "value": {
            "tensor": {
              "floatVal": [],
              "doubleVal": [],
              "intVal": [],
              "stringVal": [],
              "scomplexVal": [],
              "int64Val": [],
              "boolVal": [],
              "uint32Val": [],
              "uint64Val": [],
              "dtype": 1,
              "tensorShape": {
                "dim": [
                  {
                    "size": "512"
                  }
                ]
              }
            }
          },
          "dtype": {
            "type": 1
          }
        },
        "name": "BoxPredictor_2/ClassPredictor_depthwise/BatchNorm/moving_variance",
        "op": "Const"
      },
      {
        "input": [],
        "attr": {
          "value": {
            "tensor": {
              "floatVal": [],
              "doubleVal": [],
              "intVal": [],
              "stringVal": [],
              "scomplexVal": [],
              "int64Val": [],
              "boolVal": [],
              "uint32Val": [],
              "uint64Val": [],
              "dtype": 1,
              "tensorShape": {
                "dim": [
                  {
                    "size": "1"
                  },
                  {
                    "size": "1"
                  },
                  {
                    "size": "512"
                  },
                  {
                    "size": "546"
                  }
                ]
              }
            }
          },
          "dtype": {
            "type": 1
          }
        },
        "name": "BoxPredictor_2/ClassPredictor/weights",
        "op": "Const"
      },
      {
        "input": [],
        "attr": {
          "value": {
            "tensor": {
              "floatVal": [],
              "doubleVal": [],
              "intVal": [],
              "stringVal": [],
              "scomplexVal": [],
              "int64Val": [],
              "boolVal": [],
              "uint32Val": [],
              "uint64Val": [],
              "dtype": 1,
              "tensorShape": {
                "dim": [
                  {
                    "size": "546"
                  }
                ]
              }
            }
          },
          "dtype": {
            "type": 1
          }
        },
        "name": "BoxPredictor_2/ClassPredictor/biases",
        "op": "Const"
      },
      {
        "input": [],
        "attr": {
          "value": {
            "tensor": {
              "floatVal": [],
              "doubleVal": [],
              "intVal": [
                150
              ],
              "stringVal": [],
              "scomplexVal": [],
              "int64Val": [],
              "boolVal": [],
              "uint32Val": [],
              "uint64Val": [],
              "dtype": 3,
              "tensorShape": {
                "dim": []
              }
            }
          },
          "dtype": {
            "type": 3
          }
        },
        "name": "BoxPredictor_2/stack/1",
        "op": "Const"
      },
      {
        "input": [],
        "attr": {
          "value": {
            "tensor": {
              "floatVal": [],
              "doubleVal": [],
              "intVal": [],
              "stringVal": [],
              "scomplexVal": [],
              "int64Val": [],
              "boolVal": [],
              "uint32Val": [],
              "uint64Val": [],
              "dtype": 1,
              "tensorShape": {
                "dim": [
                  {
                    "size": "3"
                  },
                  {
                    "size": "3"
                  },
                  {
                    "size": "256"
                  },
                  {
                    "size": "1"
                  }
                ]
              }
            }
          },
          "dtype": {
            "type": 1
          }
        },
        "name": "BoxPredictor_3/ClassPredictor_depthwise/depthwise_weights",
        "op": "Const"
      },
      {
        "input": [],
        "attr": {
          "value": {
            "tensor": {
              "floatVal": [],
              "doubleVal": [],
              "intVal": [],
              "stringVal": [],
              "scomplexVal": [],
              "int64Val": [],
              "boolVal": [],
              "uint32Val": [],
              "uint64Val": [],
              "dtype": 1,
              "tensorShape": {
                "dim": [
                  {
                    "size": "256"
                  }
                ]
              }
            }
          },
          "dtype": {
            "type": 1
          }
        },
        "name": "BoxPredictor_3/ClassPredictor_depthwise/BatchNorm/gamma",
        "op": "Const"
      },
      {
        "input": [],
        "attr": {
          "value": {
            "tensor": {
              "floatVal": [],
              "doubleVal": [],
              "intVal": [],
              "stringVal": [],
              "scomplexVal": [],
              "int64Val": [],
              "boolVal": [],
              "uint32Val": [],
              "uint64Val": [],
              "dtype": 1,
              "tensorShape": {
                "dim": [
                  {
                    "size": "256"
                  }
                ]
              }
            }
          },
          "dtype": {
            "type": 1
          }
        },
        "name": "BoxPredictor_3/ClassPredictor_depthwise/BatchNorm/beta",
        "op": "Const"
      },
      {
        "input": [],
        "attr": {
          "value": {
            "tensor": {
              "floatVal": [],
              "doubleVal": [],
              "intVal": [],
              "stringVal": [],
              "scomplexVal": [],
              "int64Val": [],
              "boolVal": [],
              "uint32Val": [],
              "uint64Val": [],
              "dtype": 1,
              "tensorShape": {
                "dim": [
                  {
                    "size": "256"
                  }
                ]
              }
            }
          },
          "dtype": {
            "type": 1
          }
        },
        "name": "BoxPredictor_3/ClassPredictor_depthwise/BatchNorm/moving_mean",
        "op": "Const"
      },
      {
        "input": [],
        "attr": {
          "value": {
            "tensor": {
              "floatVal": [],
              "doubleVal": [],
              "intVal": [],
              "stringVal": [],
              "scomplexVal": [],
              "int64Val": [],
              "boolVal": [],
              "uint32Val": [],
              "uint64Val": [],
              "dtype": 1,
              "tensorShape": {
                "dim": [
                  {
                    "size": "256"
                  }
                ]
              }
            }
          },
          "dtype": {
            "type": 1
          }
        },
        "name": "BoxPredictor_3/ClassPredictor_depthwise/BatchNorm/moving_variance",
        "op": "Const"
      },
      {
        "input": [],
        "attr": {
          "value": {
            "tensor": {
              "floatVal": [],
              "doubleVal": [],
              "intVal": [],
              "stringVal": [],
              "scomplexVal": [],
              "int64Val": [],
              "boolVal": [],
              "uint32Val": [],
              "uint64Val": [],
              "dtype": 1,
              "tensorShape": {
                "dim": [
                  {
                    "size": "1"
                  },
                  {
                    "size": "1"
                  },
                  {
                    "size": "256"
                  },
                  {
                    "size": "546"
                  }
                ]
              }
            }
          },
          "dtype": {
            "type": 1
          }
        },
        "name": "BoxPredictor_3/ClassPredictor/weights",
        "op": "Const"
      },
      {
        "input": [],
        "attr": {
          "value": {
            "tensor": {
              "floatVal": [],
              "doubleVal": [],
              "intVal": [],
              "stringVal": [],
              "scomplexVal": [],
              "int64Val": [],
              "boolVal": [],
              "uint32Val": [],
              "uint64Val": [],
              "dtype": 1,
              "tensorShape": {
                "dim": [
                  {
                    "size": "546"
                  }
                ]
              }
            }
          },
          "dtype": {
            "type": 1
          }
        },
        "name": "BoxPredictor_3/ClassPredictor/biases",
        "op": "Const"
      },
      {
        "input": [],
        "attr": {
          "value": {
            "tensor": {
              "floatVal": [],
              "doubleVal": [],
              "intVal": [
                54
              ],
              "stringVal": [],
              "scomplexVal": [],
              "int64Val": [],
              "boolVal": [],
              "uint32Val": [],
              "uint64Val": [],
              "dtype": 3,
              "tensorShape": {
                "dim": []
              }
            }
          },
          "dtype": {
            "type": 3
          }
        },
        "name": "BoxPredictor_3/stack/1",
        "op": "Const"
      },
      {
        "input": [],
        "attr": {
          "value": {
            "tensor": {
              "floatVal": [],
              "doubleVal": [],
              "intVal": [],
              "stringVal": [],
              "scomplexVal": [],
              "int64Val": [],
              "boolVal": [],
              "uint32Val": [],
              "uint64Val": [],
              "dtype": 1,
              "tensorShape": {
                "dim": [
                  {
                    "size": "3"
                  },
                  {
                    "size": "3"
                  },
                  {
                    "size": "256"
                  },
                  {
                    "size": "1"
                  }
                ]
              }
            }
          },
          "dtype": {
            "type": 1
          }
        },
        "name": "BoxPredictor_4/ClassPredictor_depthwise/depthwise_weights",
        "op": "Const"
      },
      {
        "input": [],
        "attr": {
          "dtype": {
            "type": 1
          },
          "value": {
            "tensor": {
              "floatVal": [],
              "doubleVal": [],
              "intVal": [],
              "stringVal": [],
              "scomplexVal": [],
              "int64Val": [],
              "boolVal": [],
              "uint32Val": [],
              "uint64Val": [],
              "dtype": 1,
              "tensorShape": {
                "dim": [
                  {
                    "size": "256"
                  }
                ]
              }
            }
          }
        },
        "name": "BoxPredictor_4/ClassPredictor_depthwise/BatchNorm/gamma",
        "op": "Const"
      },
      {
        "input": [],
        "attr": {
          "value": {
            "tensor": {
              "floatVal": [],
              "doubleVal": [],
              "intVal": [],
              "stringVal": [],
              "scomplexVal": [],
              "int64Val": [],
              "boolVal": [],
              "uint32Val": [],
              "uint64Val": [],
              "dtype": 1,
              "tensorShape": {
                "dim": [
                  {
                    "size": "256"
                  }
                ]
              }
            }
          },
          "dtype": {
            "type": 1
          }
        },
        "name": "BoxPredictor_4/ClassPredictor_depthwise/BatchNorm/beta",
        "op": "Const"
      },
      {
        "input": [],
        "attr": {
          "value": {
            "tensor": {
              "floatVal": [],
              "doubleVal": [],
              "intVal": [],
              "stringVal": [],
              "scomplexVal": [],
              "int64Val": [],
              "boolVal": [],
              "uint32Val": [],
              "uint64Val": [],
              "dtype": 1,
              "tensorShape": {
                "dim": [
                  {
                    "size": "256"
                  }
                ]
              }
            }
          },
          "dtype": {
            "type": 1
          }
        },
        "name": "BoxPredictor_4/ClassPredictor_depthwise/BatchNorm/moving_mean",
        "op": "Const"
      },
      {
        "input": [],
        "attr": {
          "value": {
            "tensor": {
              "floatVal": [],
              "doubleVal": [],
              "intVal": [],
              "stringVal": [],
              "scomplexVal": [],
              "int64Val": [],
              "boolVal": [],
              "uint32Val": [],
              "uint64Val": [],
              "dtype": 1,
              "tensorShape": {
                "dim": [
                  {
                    "size": "256"
                  }
                ]
              }
            }
          },
          "dtype": {
            "type": 1
          }
        },
        "name": "BoxPredictor_4/ClassPredictor_depthwise/BatchNorm/moving_variance",
        "op": "Const"
      },
      {
        "input": [],
        "attr": {
          "value": {
            "tensor": {
              "floatVal": [],
              "doubleVal": [],
              "intVal": [],
              "stringVal": [],
              "scomplexVal": [],
              "int64Val": [],
              "boolVal": [],
              "uint32Val": [],
              "uint64Val": [],
              "dtype": 1,
              "tensorShape": {
                "dim": [
                  {
                    "size": "1"
                  },
                  {
                    "size": "1"
                  },
                  {
                    "size": "256"
                  },
                  {
                    "size": "546"
                  }
                ]
              }
            }
          },
          "dtype": {
            "type": 1
          }
        },
        "name": "BoxPredictor_4/ClassPredictor/weights",
        "op": "Const"
      },
      {
        "input": [],
        "attr": {
          "value": {
            "tensor": {
              "floatVal": [],
              "doubleVal": [],
              "intVal": [],
              "stringVal": [],
              "scomplexVal": [],
              "int64Val": [],
              "boolVal": [],
              "uint32Val": [],
              "uint64Val": [],
              "dtype": 1,
              "tensorShape": {
                "dim": [
                  {
                    "size": "546"
                  }
                ]
              }
            }
          },
          "dtype": {
            "type": 1
          }
        },
        "name": "BoxPredictor_4/ClassPredictor/biases",
        "op": "Const"
      },
      {
        "input": [],
        "attr": {
          "value": {
            "tensor": {
              "floatVal": [],
              "doubleVal": [],
              "intVal": [
                24
              ],
              "stringVal": [],
              "scomplexVal": [],
              "int64Val": [],
              "boolVal": [],
              "uint32Val": [],
              "uint64Val": [],
              "dtype": 3,
              "tensorShape": {
                "dim": []
              }
            }
          },
          "dtype": {
            "type": 3
          }
        },
        "name": "BoxPredictor_4/stack/1",
        "op": "Const"
      },
      {
        "input": [],
        "attr": {
          "value": {
            "tensor": {
              "floatVal": [],
              "doubleVal": [],
              "intVal": [],
              "stringVal": [],
              "scomplexVal": [],
              "int64Val": [],
              "boolVal": [],
              "uint32Val": [],
              "uint64Val": [],
              "dtype": 1,
              "tensorShape": {
                "dim": [
                  {
                    "size": "3"
                  },
                  {
                    "size": "3"
                  },
                  {
                    "size": "128"
                  },
                  {
                    "size": "1"
                  }
                ]
              }
            }
          },
          "dtype": {
            "type": 1
          }
        },
        "name": "BoxPredictor_5/ClassPredictor_depthwise/depthwise_weights",
        "op": "Const"
      },
      {
        "input": [],
        "attr": {
          "value": {
            "tensor": {
              "floatVal": [],
              "doubleVal": [],
              "intVal": [],
              "stringVal": [],
              "scomplexVal": [],
              "int64Val": [],
              "boolVal": [],
              "uint32Val": [],
              "uint64Val": [],
              "dtype": 1,
              "tensorShape": {
                "dim": [
                  {
                    "size": "128"
                  }
                ]
              }
            }
          },
          "dtype": {
            "type": 1
          }
        },
        "name": "BoxPredictor_5/ClassPredictor_depthwise/BatchNorm/gamma",
        "op": "Const"
      },
      {
        "input": [],
        "attr": {
          "value": {
            "tensor": {
              "floatVal": [],
              "doubleVal": [],
              "intVal": [],
              "stringVal": [],
              "scomplexVal": [],
              "int64Val": [],
              "boolVal": [],
              "uint32Val": [],
              "uint64Val": [],
              "dtype": 1,
              "tensorShape": {
                "dim": [
                  {
                    "size": "128"
                  }
                ]
              }
            }
          },
          "dtype": {
            "type": 1
          }
        },
        "name": "BoxPredictor_5/ClassPredictor_depthwise/BatchNorm/beta",
        "op": "Const"
      },
      {
        "input": [],
        "attr": {
          "value": {
            "tensor": {
              "floatVal": [],
              "doubleVal": [],
              "intVal": [],
              "stringVal": [],
              "scomplexVal": [],
              "int64Val": [],
              "boolVal": [],
              "uint32Val": [],
              "uint64Val": [],
              "dtype": 1,
              "tensorShape": {
                "dim": [
                  {
                    "size": "128"
                  }
                ]
              }
            }
          },
          "dtype": {
            "type": 1
          }
        },
        "name": "BoxPredictor_5/ClassPredictor_depthwise/BatchNorm/moving_mean",
        "op": "Const"
      },
      {
        "input": [],
        "attr": {
          "value": {
            "tensor": {
              "floatVal": [],
              "doubleVal": [],
              "intVal": [],
              "stringVal": [],
              "scomplexVal": [],
              "int64Val": [],
              "boolVal": [],
              "uint32Val": [],
              "uint64Val": [],
              "dtype": 1,
              "tensorShape": {
                "dim": [
                  {
                    "size": "128"
                  }
                ]
              }
            }
          },
          "dtype": {
            "type": 1
          }
        },
        "name": "BoxPredictor_5/ClassPredictor_depthwise/BatchNorm/moving_variance",
        "op": "Const"
      },
      {
        "input": [],
        "attr": {
          "dtype": {
            "type": 1
          },
          "value": {
            "tensor": {
              "floatVal": [],
              "doubleVal": [],
              "intVal": [],
              "stringVal": [],
              "scomplexVal": [],
              "int64Val": [],
              "boolVal": [],
              "uint32Val": [],
              "uint64Val": [],
              "dtype": 1,
              "tensorShape": {
                "dim": [
                  {
                    "size": "1"
                  },
                  {
                    "size": "1"
                  },
                  {
                    "size": "128"
                  },
                  {
                    "size": "546"
                  }
                ]
              }
            }
          }
        },
        "name": "BoxPredictor_5/ClassPredictor/weights",
        "op": "Const"
      },
      {
        "input": [],
        "attr": {
          "value": {
            "tensor": {
              "floatVal": [],
              "doubleVal": [],
              "intVal": [],
              "stringVal": [],
              "scomplexVal": [],
              "int64Val": [],
              "boolVal": [],
              "uint32Val": [],
              "uint64Val": [],
              "dtype": 1,
              "tensorShape": {
                "dim": [
                  {
                    "size": "546"
                  }
                ]
              }
            }
          },
          "dtype": {
            "type": 1
          }
        },
        "name": "BoxPredictor_5/ClassPredictor/biases",
        "op": "Const"
      },
      {
        "input": [],
        "attr": {
          "value": {
            "tensor": {
              "floatVal": [],
              "doubleVal": [],
              "intVal": [],
              "stringVal": [],
              "scomplexVal": [],
              "int64Val": [],
              "boolVal": [],
              "uint32Val": [],
              "uint64Val": [],
              "dtype": 1,
              "tensorShape": {
                "dim": [
                  {
                    "size": "160"
                  }
                ]
              }
            }
          },
          "dtype": {
            "type": 1
          }
        },
        "name": "FeatureExtractor/MobilenetV2/expanded_conv_15/project/BatchNorm/batchnorm/sub",
        "op": "Const"
      },
      {
        "input": [],
        "attr": {
          "value": {
            "tensor": {
              "floatVal": [],
              "doubleVal": [],
              "intVal": [],
              "stringVal": [],
              "scomplexVal": [],
              "int64Val": [],
              "boolVal": [],
              "uint32Val": [],
              "uint64Val": [],
              "dtype": 1,
              "tensorShape": {
                "dim": [
                  {
                    "size": "1"
                  },
                  {
                    "size": "1"
                  },
                  {
                    "size": "160"
                  },
                  {
                    "size": "960"
                  }
                ]
              }
            }
          },
          "dtype": {
            "type": 1
          }
        },
        "name": "FeatureExtractor/MobilenetV2/expanded_conv_15/expand/Conv2D/merged_input",
        "op": "Const"
      },
      {
        "input": [],
        "attr": {
          "value": {
            "tensor": {
              "floatVal": [],
              "doubleVal": [],
              "intVal": [],
              "stringVal": [],
              "scomplexVal": [],
              "int64Val": [],
              "boolVal": [],
              "uint32Val": [],
              "uint64Val": [],
              "dtype": 1,
              "tensorShape": {
                "dim": [
                  {
                    "size": "960"
                  }
                ]
              }
            }
          },
          "dtype": {
            "type": 1
          }
        },
        "name": "FeatureExtractor/MobilenetV2/expanded_conv_15/expand/BatchNorm/batchnorm/sub",
        "op": "Const"
      },
      {
        "input": [],
        "attr": {
          "value": {
            "tensor": {
              "floatVal": [],
              "doubleVal": [],
              "intVal": [],
              "stringVal": [],
              "scomplexVal": [],
              "int64Val": [],
              "boolVal": [],
              "uint32Val": [],
              "uint64Val": [],
              "dtype": 1,
              "tensorShape": {
                "dim": [
                  {
                    "size": "3"
                  },
                  {
                    "size": "3"
                  },
                  {
                    "size": "960"
                  },
                  {
                    "size": "1"
                  }
                ]
              }
            }
          },
          "dtype": {
            "type": 1
          }
        },
        "name": "FeatureExtractor/MobilenetV2/expanded_conv_15/depthwise/depthwise_weights",
        "op": "Const"
      },
      {
        "input": [],
        "attr": {
          "value": {
            "tensor": {
              "floatVal": [],
              "doubleVal": [],
              "intVal": [],
              "stringVal": [],
              "scomplexVal": [],
              "int64Val": [],
              "boolVal": [],
              "uint32Val": [],
              "uint64Val": [],
              "dtype": 1,
              "tensorShape": {
                "dim": [
                  {
                    "size": "960"
                  }
                ]
              }
            }
          },
          "dtype": {
            "type": 1
          }
        },
        "name": "FeatureExtractor/MobilenetV2/expanded_conv_15/depthwise/BatchNorm/batchnorm/mul",
        "op": "Const"
      },
      {
        "input": [],
        "attr": {
          "value": {
            "tensor": {
              "floatVal": [],
              "doubleVal": [],
              "intVal": [],
              "stringVal": [],
              "scomplexVal": [],
              "int64Val": [],
              "boolVal": [],
              "uint32Val": [],
              "uint64Val": [],
              "dtype": 1,
              "tensorShape": {
                "dim": [
                  {
                    "size": "960"
                  }
                ]
              }
            }
          },
          "dtype": {
            "type": 1
          }
        },
        "name": "FeatureExtractor/MobilenetV2/expanded_conv_15/depthwise/BatchNorm/batchnorm/sub",
        "op": "Const"
      },
      {
        "input": [],
        "attr": {
          "value": {
            "tensor": {
              "floatVal": [],
              "doubleVal": [],
              "intVal": [],
              "stringVal": [],
              "scomplexVal": [],
              "int64Val": [],
              "boolVal": [],
              "uint32Val": [],
              "uint64Val": [],
              "dtype": 1,
              "tensorShape": {
                "dim": [
                  {
                    "size": "1"
                  },
                  {
                    "size": "1"
                  },
                  {
                    "size": "960"
                  },
                  {
                    "size": "160"
                  }
                ]
              }
            }
          },
          "dtype": {
            "type": 1
          }
        },
        "name": "FeatureExtractor/MobilenetV2/expanded_conv_15/project/Conv2D/merged_input",
        "op": "Const"
      },
      {
        "input": [],
        "attr": {
          "value": {
            "tensor": {
              "floatVal": [],
              "doubleVal": [],
              "intVal": [],
              "stringVal": [],
              "scomplexVal": [],
              "int64Val": [],
              "boolVal": [],
              "uint32Val": [],
              "uint64Val": [],
              "dtype": 1,
              "tensorShape": {
                "dim": [
                  {
                    "size": "160"
                  }
                ]
              }
            }
          },
          "dtype": {
            "type": 1
          }
        },
        "name": "FeatureExtractor/MobilenetV2/expanded_conv_14/project/BatchNorm/batchnorm/sub",
        "op": "Const"
      },
      {
        "input": [],
        "attr": {
          "value": {
            "tensor": {
              "floatVal": [],
              "doubleVal": [],
              "intVal": [],
              "stringVal": [],
              "scomplexVal": [],
              "int64Val": [],
              "boolVal": [],
              "uint32Val": [],
              "uint64Val": [],
              "dtype": 1,
              "tensorShape": {
                "dim": [
                  {
                    "size": "1"
                  },
                  {
                    "size": "1"
                  },
                  {
                    "size": "160"
                  },
                  {
                    "size": "960"
                  }
                ]
              }
            }
          },
          "dtype": {
            "type": 1
          }
        },
        "name": "FeatureExtractor/MobilenetV2/expanded_conv_14/expand/Conv2D/merged_input",
        "op": "Const"
      },
      {
        "input": [],
        "attr": {
          "value": {
            "tensor": {
              "floatVal": [],
              "doubleVal": [],
              "intVal": [],
              "stringVal": [],
              "scomplexVal": [],
              "int64Val": [],
              "boolVal": [],
              "uint32Val": [],
              "uint64Val": [],
              "dtype": 1,
              "tensorShape": {
                "dim": [
                  {
                    "size": "960"
                  }
                ]
              }
            }
          },
          "dtype": {
            "type": 1
          }
        },
        "name": "FeatureExtractor/MobilenetV2/expanded_conv_14/expand/BatchNorm/batchnorm/sub",
        "op": "Const"
      },
      {
        "input": [],
        "attr": {
          "value": {
            "tensor": {
              "floatVal": [],
              "doubleVal": [],
              "intVal": [],
              "stringVal": [],
              "scomplexVal": [],
              "int64Val": [],
              "boolVal": [],
              "uint32Val": [],
              "uint64Val": [],
              "dtype": 1,
              "tensorShape": {
                "dim": [
                  {
                    "size": "3"
                  },
                  {
                    "size": "3"
                  },
                  {
                    "size": "960"
                  },
                  {
                    "size": "1"
                  }
                ]
              }
            }
          },
          "dtype": {
            "type": 1
          }
        },
        "name": "FeatureExtractor/MobilenetV2/expanded_conv_14/depthwise/depthwise_weights",
        "op": "Const"
      },
      {
        "input": [],
        "attr": {
          "value": {
            "tensor": {
              "floatVal": [],
              "doubleVal": [],
              "intVal": [],
              "stringVal": [],
              "scomplexVal": [],
              "int64Val": [],
              "boolVal": [],
              "uint32Val": [],
              "uint64Val": [],
              "dtype": 1,
              "tensorShape": {
                "dim": [
                  {
                    "size": "960"
                  }
                ]
              }
            }
          },
          "dtype": {
            "type": 1
          }
        },
        "name": "FeatureExtractor/MobilenetV2/expanded_conv_14/depthwise/BatchNorm/batchnorm/mul",
        "op": "Const"
      },
      {
        "input": [],
        "attr": {
          "value": {
            "tensor": {
              "floatVal": [],
              "doubleVal": [],
              "intVal": [],
              "stringVal": [],
              "scomplexVal": [],
              "int64Val": [],
              "boolVal": [],
              "uint32Val": [],
              "uint64Val": [],
              "dtype": 1,
              "tensorShape": {
                "dim": [
                  {
                    "size": "960"
                  }
                ]
              }
            }
          },
          "dtype": {
            "type": 1
          }
        },
        "name": "FeatureExtractor/MobilenetV2/expanded_conv_14/depthwise/BatchNorm/batchnorm/sub",
        "op": "Const"
      },
      {
        "input": [],
        "attr": {
          "value": {
            "tensor": {
              "floatVal": [],
              "doubleVal": [],
              "intVal": [],
              "stringVal": [],
              "scomplexVal": [],
              "int64Val": [],
              "boolVal": [],
              "uint32Val": [],
              "uint64Val": [],
              "dtype": 1,
              "tensorShape": {
                "dim": [
                  {
                    "size": "1"
                  },
                  {
                    "size": "1"
                  },
                  {
                    "size": "960"
                  },
                  {
                    "size": "160"
                  }
                ]
              }
            }
          },
          "dtype": {
            "type": 1
          }
        },
        "name": "FeatureExtractor/MobilenetV2/expanded_conv_14/project/Conv2D/merged_input",
        "op": "Const"
      },
      {
        "input": [],
        "attr": {
          "value": {
            "tensor": {
              "floatVal": [],
              "doubleVal": [],
              "intVal": [],
              "stringVal": [],
              "scomplexVal": [],
              "int64Val": [],
              "boolVal": [],
              "uint32Val": [],
              "uint64Val": [],
              "dtype": 1,
              "tensorShape": {
                "dim": [
                  {
                    "size": "96"
                  }
                ]
              }
            }
          },
          "dtype": {
            "type": 1
          }
        },
        "name": "FeatureExtractor/MobilenetV2/expanded_conv_12/project/BatchNorm/batchnorm/sub",
        "op": "Const"
      },
      {
        "input": [],
        "attr": {
          "value": {
            "tensor": {
              "floatVal": [],
              "doubleVal": [],
              "intVal": [],
              "stringVal": [],
              "scomplexVal": [],
              "int64Val": [],
              "boolVal": [],
              "uint32Val": [],
              "uint64Val": [],
              "dtype": 1,
              "tensorShape": {
                "dim": [
                  {
                    "size": "1"
                  },
                  {
                    "size": "1"
                  },
                  {
                    "size": "96"
                  },
                  {
                    "size": "576"
                  }
                ]
              }
            }
          },
          "dtype": {
            "type": 1
          }
        },
        "name": "FeatureExtractor/MobilenetV2/expanded_conv_12/expand/Conv2D/merged_input",
        "op": "Const"
      },
      {
        "input": [],
        "attr": {
          "value": {
            "tensor": {
              "floatVal": [],
              "doubleVal": [],
              "intVal": [],
              "stringVal": [],
              "scomplexVal": [],
              "int64Val": [],
              "boolVal": [],
              "uint32Val": [],
              "uint64Val": [],
              "dtype": 1,
              "tensorShape": {
                "dim": [
                  {
                    "size": "576"
                  }
                ]
              }
            }
          },
          "dtype": {
            "type": 1
          }
        },
        "name": "FeatureExtractor/MobilenetV2/expanded_conv_12/expand/BatchNorm/batchnorm/sub",
        "op": "Const"
      },
      {
        "input": [],
        "attr": {
          "value": {
            "tensor": {
              "floatVal": [],
              "doubleVal": [],
              "intVal": [],
              "stringVal": [],
              "scomplexVal": [],
              "int64Val": [],
              "boolVal": [],
              "uint32Val": [],
              "uint64Val": [],
              "dtype": 1,
              "tensorShape": {
                "dim": [
                  {
                    "size": "3"
                  },
                  {
                    "size": "3"
                  },
                  {
                    "size": "576"
                  },
                  {
                    "size": "1"
                  }
                ]
              }
            }
          },
          "dtype": {
            "type": 1
          }
        },
        "name": "FeatureExtractor/MobilenetV2/expanded_conv_12/depthwise/depthwise_weights",
        "op": "Const"
      },
      {
        "input": [],
        "attr": {
          "value": {
            "tensor": {
              "floatVal": [],
              "doubleVal": [],
              "intVal": [],
              "stringVal": [],
              "scomplexVal": [],
              "int64Val": [],
              "boolVal": [],
              "uint32Val": [],
              "uint64Val": [],
              "dtype": 1,
              "tensorShape": {
                "dim": [
                  {
                    "size": "576"
                  }
                ]
              }
            }
          },
          "dtype": {
            "type": 1
          }
        },
        "name": "FeatureExtractor/MobilenetV2/expanded_conv_12/depthwise/BatchNorm/batchnorm/mul",
        "op": "Const"
      },
      {
        "input": [],
        "attr": {
          "value": {
            "tensor": {
              "floatVal": [],
              "doubleVal": [],
              "intVal": [],
              "stringVal": [],
              "scomplexVal": [],
              "int64Val": [],
              "boolVal": [],
              "uint32Val": [],
              "uint64Val": [],
              "dtype": 1,
              "tensorShape": {
                "dim": [
                  {
                    "size": "576"
                  }
                ]
              }
            }
          },
          "dtype": {
            "type": 1
          }
        },
        "name": "FeatureExtractor/MobilenetV2/expanded_conv_12/depthwise/BatchNorm/batchnorm/sub",
        "op": "Const"
      },
      {
        "input": [],
        "attr": {
          "value": {
            "tensor": {
              "floatVal": [],
              "doubleVal": [],
              "intVal": [],
              "stringVal": [],
              "scomplexVal": [],
              "int64Val": [],
              "boolVal": [],
              "uint32Val": [],
              "uint64Val": [],
              "dtype": 1,
              "tensorShape": {
                "dim": [
                  {
                    "size": "1"
                  },
                  {
                    "size": "1"
                  },
                  {
                    "size": "576"
                  },
                  {
                    "size": "96"
                  }
                ]
              }
            }
          },
          "dtype": {
            "type": 1
          }
        },
        "name": "FeatureExtractor/MobilenetV2/expanded_conv_12/project/Conv2D/merged_input",
        "op": "Const"
      },
      {
        "input": [],
        "attr": {
          "dtype": {
            "type": 1
          },
          "value": {
            "tensor": {
              "floatVal": [],
              "doubleVal": [],
              "intVal": [],
              "stringVal": [],
              "scomplexVal": [],
              "int64Val": [],
              "boolVal": [],
              "uint32Val": [],
              "uint64Val": [],
              "dtype": 1,
              "tensorShape": {
                "dim": [
                  {
                    "size": "96"
                  }
                ]
              }
            }
          }
        },
        "name": "FeatureExtractor/MobilenetV2/expanded_conv_11/project/BatchNorm/batchnorm/sub",
        "op": "Const"
      },
      {
        "input": [],
        "attr": {
          "value": {
            "tensor": {
              "floatVal": [],
              "doubleVal": [],
              "intVal": [],
              "stringVal": [],
              "scomplexVal": [],
              "int64Val": [],
              "boolVal": [],
              "uint32Val": [],
              "uint64Val": [],
              "dtype": 1,
              "tensorShape": {
                "dim": [
                  {
                    "size": "1"
                  },
                  {
                    "size": "1"
                  },
                  {
                    "size": "96"
                  },
                  {
                    "size": "576"
                  }
                ]
              }
            }
          },
          "dtype": {
            "type": 1
          }
        },
        "name": "FeatureExtractor/MobilenetV2/expanded_conv_11/expand/Conv2D/merged_input",
        "op": "Const"
      },
      {
        "input": [],
        "attr": {
          "dtype": {
            "type": 1
          },
          "value": {
            "tensor": {
              "floatVal": [],
              "doubleVal": [],
              "intVal": [],
              "stringVal": [],
              "scomplexVal": [],
              "int64Val": [],
              "boolVal": [],
              "uint32Val": [],
              "uint64Val": [],
              "dtype": 1,
              "tensorShape": {
                "dim": [
                  {
                    "size": "576"
                  }
                ]
              }
            }
          }
        },
        "name": "FeatureExtractor/MobilenetV2/expanded_conv_11/expand/BatchNorm/batchnorm/sub",
        "op": "Const"
      },
      {
        "input": [],
        "attr": {
          "value": {
            "tensor": {
              "floatVal": [],
              "doubleVal": [],
              "intVal": [],
              "stringVal": [],
              "scomplexVal": [],
              "int64Val": [],
              "boolVal": [],
              "uint32Val": [],
              "uint64Val": [],
              "dtype": 1,
              "tensorShape": {
                "dim": [
                  {
                    "size": "3"
                  },
                  {
                    "size": "3"
                  },
                  {
                    "size": "576"
                  },
                  {
                    "size": "1"
                  }
                ]
              }
            }
          },
          "dtype": {
            "type": 1
          }
        },
        "name": "FeatureExtractor/MobilenetV2/expanded_conv_11/depthwise/depthwise_weights",
        "op": "Const"
      },
      {
        "input": [],
        "attr": {
          "value": {
            "tensor": {
              "floatVal": [],
              "doubleVal": [],
              "intVal": [],
              "stringVal": [],
              "scomplexVal": [],
              "int64Val": [],
              "boolVal": [],
              "uint32Val": [],
              "uint64Val": [],
              "dtype": 1,
              "tensorShape": {
                "dim": [
                  {
                    "size": "576"
                  }
                ]
              }
            }
          },
          "dtype": {
            "type": 1
          }
        },
        "name": "FeatureExtractor/MobilenetV2/expanded_conv_11/depthwise/BatchNorm/batchnorm/mul",
        "op": "Const"
      },
      {
        "input": [],
        "attr": {
          "value": {
            "tensor": {
              "floatVal": [],
              "doubleVal": [],
              "intVal": [],
              "stringVal": [],
              "scomplexVal": [],
              "int64Val": [],
              "boolVal": [],
              "uint32Val": [],
              "uint64Val": [],
              "dtype": 1,
              "tensorShape": {
                "dim": [
                  {
                    "size": "576"
                  }
                ]
              }
            }
          },
          "dtype": {
            "type": 1
          }
        },
        "name": "FeatureExtractor/MobilenetV2/expanded_conv_11/depthwise/BatchNorm/batchnorm/sub",
        "op": "Const"
      },
      {
        "input": [],
        "attr": {
          "value": {
            "tensor": {
              "floatVal": [],
              "doubleVal": [],
              "intVal": [],
              "stringVal": [],
              "scomplexVal": [],
              "int64Val": [],
              "boolVal": [],
              "uint32Val": [],
              "uint64Val": [],
              "dtype": 1,
              "tensorShape": {
                "dim": [
                  {
                    "size": "1"
                  },
                  {
                    "size": "1"
                  },
                  {
                    "size": "576"
                  },
                  {
                    "size": "96"
                  }
                ]
              }
            }
          },
          "dtype": {
            "type": 1
          }
        },
        "name": "FeatureExtractor/MobilenetV2/expanded_conv_11/project/Conv2D/merged_input",
        "op": "Const"
      },
      {
        "input": [],
        "attr": {
          "dtype": {
            "type": 1
          },
          "value": {
            "tensor": {
              "floatVal": [],
              "doubleVal": [],
              "intVal": [],
              "stringVal": [],
              "scomplexVal": [],
              "int64Val": [],
              "boolVal": [],
              "uint32Val": [],
              "uint64Val": [],
              "dtype": 1,
              "tensorShape": {
                "dim": [
                  {
                    "size": "64"
                  }
                ]
              }
            }
          }
        },
        "name": "FeatureExtractor/MobilenetV2/expanded_conv_9/project/BatchNorm/batchnorm/sub",
        "op": "Const"
      },
      {
        "input": [],
        "attr": {
          "value": {
            "tensor": {
              "floatVal": [],
              "doubleVal": [],
              "intVal": [],
              "stringVal": [],
              "scomplexVal": [],
              "int64Val": [],
              "boolVal": [],
              "uint32Val": [],
              "uint64Val": [],
              "dtype": 1,
              "tensorShape": {
                "dim": [
                  {
                    "size": "1"
                  },
                  {
                    "size": "1"
                  },
                  {
                    "size": "64"
                  },
                  {
                    "size": "384"
                  }
                ]
              }
            }
          },
          "dtype": {
            "type": 1
          }
        },
        "name": "FeatureExtractor/MobilenetV2/expanded_conv_9/expand/Conv2D/merged_input",
        "op": "Const"
      },
      {
        "input": [],
        "attr": {
          "value": {
            "tensor": {
              "floatVal": [],
              "doubleVal": [],
              "intVal": [],
              "stringVal": [],
              "scomplexVal": [],
              "int64Val": [],
              "boolVal": [],
              "uint32Val": [],
              "uint64Val": [],
              "dtype": 1,
              "tensorShape": {
                "dim": [
                  {
                    "size": "384"
                  }
                ]
              }
            }
          },
          "dtype": {
            "type": 1
          }
        },
        "name": "FeatureExtractor/MobilenetV2/expanded_conv_9/expand/BatchNorm/batchnorm/sub",
        "op": "Const"
      },
      {
        "input": [],
        "attr": {
          "dtype": {
            "type": 1
          },
          "value": {
            "tensor": {
              "floatVal": [],
              "doubleVal": [],
              "intVal": [],
              "stringVal": [],
              "scomplexVal": [],
              "int64Val": [],
              "boolVal": [],
              "uint32Val": [],
              "uint64Val": [],
              "dtype": 1,
              "tensorShape": {
                "dim": [
                  {
                    "size": "3"
                  },
                  {
                    "size": "3"
                  },
                  {
                    "size": "384"
                  },
                  {
                    "size": "1"
                  }
                ]
              }
            }
          }
        },
        "name": "FeatureExtractor/MobilenetV2/expanded_conv_9/depthwise/depthwise_weights",
        "op": "Const"
      },
      {
        "input": [],
        "attr": {
          "value": {
            "tensor": {
              "floatVal": [],
              "doubleVal": [],
              "intVal": [],
              "stringVal": [],
              "scomplexVal": [],
              "int64Val": [],
              "boolVal": [],
              "uint32Val": [],
              "uint64Val": [],
              "dtype": 1,
              "tensorShape": {
                "dim": [
                  {
                    "size": "384"
                  }
                ]
              }
            }
          },
          "dtype": {
            "type": 1
          }
        },
        "name": "FeatureExtractor/MobilenetV2/expanded_conv_9/depthwise/BatchNorm/batchnorm/mul",
        "op": "Const"
      },
      {
        "input": [],
        "attr": {
          "value": {
            "tensor": {
              "floatVal": [],
              "doubleVal": [],
              "intVal": [],
              "stringVal": [],
              "scomplexVal": [],
              "int64Val": [],
              "boolVal": [],
              "uint32Val": [],
              "uint64Val": [],
              "dtype": 1,
              "tensorShape": {
                "dim": [
                  {
                    "size": "384"
                  }
                ]
              }
            }
          },
          "dtype": {
            "type": 1
          }
        },
        "name": "FeatureExtractor/MobilenetV2/expanded_conv_9/depthwise/BatchNorm/batchnorm/sub",
        "op": "Const"
      },
      {
        "input": [],
        "attr": {
          "dtype": {
            "type": 1
          },
          "value": {
            "tensor": {
              "floatVal": [],
              "doubleVal": [],
              "intVal": [],
              "stringVal": [],
              "scomplexVal": [],
              "int64Val": [],
              "boolVal": [],
              "uint32Val": [],
              "uint64Val": [],
              "dtype": 1,
              "tensorShape": {
                "dim": [
                  {
                    "size": "1"
                  },
                  {
                    "size": "1"
                  },
                  {
                    "size": "384"
                  },
                  {
                    "size": "64"
                  }
                ]
              }
            }
          }
        },
        "name": "FeatureExtractor/MobilenetV2/expanded_conv_9/project/Conv2D/merged_input",
        "op": "Const"
      },
      {
        "input": [],
        "attr": {
          "value": {
            "tensor": {
              "floatVal": [],
              "doubleVal": [],
              "intVal": [],
              "stringVal": [],
              "scomplexVal": [],
              "int64Val": [],
              "boolVal": [],
              "uint32Val": [],
              "uint64Val": [],
              "dtype": 1,
              "tensorShape": {
                "dim": [
                  {
                    "size": "64"
                  }
                ]
              }
            }
          },
          "dtype": {
            "type": 1
          }
        },
        "name": "FeatureExtractor/MobilenetV2/expanded_conv_8/project/BatchNorm/batchnorm/sub",
        "op": "Const"
      },
      {
        "input": [],
        "attr": {
          "value": {
            "tensor": {
              "floatVal": [],
              "doubleVal": [],
              "intVal": [],
              "stringVal": [],
              "scomplexVal": [],
              "int64Val": [],
              "boolVal": [],
              "uint32Val": [],
              "uint64Val": [],
              "dtype": 1,
              "tensorShape": {
                "dim": [
                  {
                    "size": "1"
                  },
                  {
                    "size": "1"
                  },
                  {
                    "size": "64"
                  },
                  {
                    "size": "384"
                  }
                ]
              }
            }
          },
          "dtype": {
            "type": 1
          }
        },
        "name": "FeatureExtractor/MobilenetV2/expanded_conv_8/expand/Conv2D/merged_input",
        "op": "Const"
      },
      {
        "input": [],
        "attr": {
          "value": {
            "tensor": {
              "floatVal": [],
              "doubleVal": [],
              "intVal": [],
              "stringVal": [],
              "scomplexVal": [],
              "int64Val": [],
              "boolVal": [],
              "uint32Val": [],
              "uint64Val": [],
              "dtype": 1,
              "tensorShape": {
                "dim": [
                  {
                    "size": "384"
                  }
                ]
              }
            }
          },
          "dtype": {
            "type": 1
          }
        },
        "name": "FeatureExtractor/MobilenetV2/expanded_conv_8/expand/BatchNorm/batchnorm/sub",
        "op": "Const"
      },
      {
        "input": [],
        "attr": {
          "value": {
            "tensor": {
              "floatVal": [],
              "doubleVal": [],
              "intVal": [],
              "stringVal": [],
              "scomplexVal": [],
              "int64Val": [],
              "boolVal": [],
              "uint32Val": [],
              "uint64Val": [],
              "dtype": 1,
              "tensorShape": {
                "dim": [
                  {
                    "size": "3"
                  },
                  {
                    "size": "3"
                  },
                  {
                    "size": "384"
                  },
                  {
                    "size": "1"
                  }
                ]
              }
            }
          },
          "dtype": {
            "type": 1
          }
        },
        "name": "FeatureExtractor/MobilenetV2/expanded_conv_8/depthwise/depthwise_weights",
        "op": "Const"
      },
      {
        "input": [],
        "attr": {
          "value": {
            "tensor": {
              "floatVal": [],
              "doubleVal": [],
              "intVal": [],
              "stringVal": [],
              "scomplexVal": [],
              "int64Val": [],
              "boolVal": [],
              "uint32Val": [],
              "uint64Val": [],
              "dtype": 1,
              "tensorShape": {
                "dim": [
                  {
                    "size": "384"
                  }
                ]
              }
            }
          },
          "dtype": {
            "type": 1
          }
        },
        "name": "FeatureExtractor/MobilenetV2/expanded_conv_8/depthwise/BatchNorm/batchnorm/mul",
        "op": "Const"
      },
      {
        "input": [],
        "attr": {
          "value": {
            "tensor": {
              "floatVal": [],
              "doubleVal": [],
              "intVal": [],
              "stringVal": [],
              "scomplexVal": [],
              "int64Val": [],
              "boolVal": [],
              "uint32Val": [],
              "uint64Val": [],
              "dtype": 1,
              "tensorShape": {
                "dim": [
                  {
                    "size": "384"
                  }
                ]
              }
            }
          },
          "dtype": {
            "type": 1
          }
        },
        "name": "FeatureExtractor/MobilenetV2/expanded_conv_8/depthwise/BatchNorm/batchnorm/sub",
        "op": "Const"
      },
      {
        "input": [],
        "attr": {
          "value": {
            "tensor": {
              "floatVal": [],
              "doubleVal": [],
              "intVal": [],
              "stringVal": [],
              "scomplexVal": [],
              "int64Val": [],
              "boolVal": [],
              "uint32Val": [],
              "uint64Val": [],
              "dtype": 1,
              "tensorShape": {
                "dim": [
                  {
                    "size": "1"
                  },
                  {
                    "size": "1"
                  },
                  {
                    "size": "384"
                  },
                  {
                    "size": "64"
                  }
                ]
              }
            }
          },
          "dtype": {
            "type": 1
          }
        },
        "name": "FeatureExtractor/MobilenetV2/expanded_conv_8/project/Conv2D/merged_input",
        "op": "Const"
      },
      {
        "input": [],
        "attr": {
          "value": {
            "tensor": {
              "floatVal": [],
              "doubleVal": [],
              "intVal": [],
              "stringVal": [],
              "scomplexVal": [],
              "int64Val": [],
              "boolVal": [],
              "uint32Val": [],
              "uint64Val": [],
              "dtype": 1,
              "tensorShape": {
                "dim": [
                  {
                    "size": "64"
                  }
                ]
              }
            }
          },
          "dtype": {
            "type": 1
          }
        },
        "name": "FeatureExtractor/MobilenetV2/expanded_conv_7/project/BatchNorm/batchnorm/sub",
        "op": "Const"
      },
      {
        "input": [],
        "attr": {
          "value": {
            "tensor": {
              "floatVal": [],
              "doubleVal": [],
              "intVal": [],
              "stringVal": [],
              "scomplexVal": [],
              "int64Val": [],
              "boolVal": [],
              "uint32Val": [],
              "uint64Val": [],
              "dtype": 1,
              "tensorShape": {
                "dim": [
                  {
                    "size": "1"
                  },
                  {
                    "size": "1"
                  },
                  {
                    "size": "64"
                  },
                  {
                    "size": "384"
                  }
                ]
              }
            }
          },
          "dtype": {
            "type": 1
          }
        },
        "name": "FeatureExtractor/MobilenetV2/expanded_conv_7/expand/Conv2D/merged_input",
        "op": "Const"
      },
      {
        "input": [],
        "attr": {
          "value": {
            "tensor": {
              "floatVal": [],
              "doubleVal": [],
              "intVal": [],
              "stringVal": [],
              "scomplexVal": [],
              "int64Val": [],
              "boolVal": [],
              "uint32Val": [],
              "uint64Val": [],
              "dtype": 1,
              "tensorShape": {
                "dim": [
                  {
                    "size": "384"
                  }
                ]
              }
            }
          },
          "dtype": {
            "type": 1
          }
        },
        "name": "FeatureExtractor/MobilenetV2/expanded_conv_7/expand/BatchNorm/batchnorm/sub",
        "op": "Const"
      },
      {
        "input": [],
        "attr": {
          "value": {
            "tensor": {
              "floatVal": [],
              "doubleVal": [],
              "intVal": [],
              "stringVal": [],
              "scomplexVal": [],
              "int64Val": [],
              "boolVal": [],
              "uint32Val": [],
              "uint64Val": [],
              "dtype": 1,
              "tensorShape": {
                "dim": [
                  {
                    "size": "3"
                  },
                  {
                    "size": "3"
                  },
                  {
                    "size": "384"
                  },
                  {
                    "size": "1"
                  }
                ]
              }
            }
          },
          "dtype": {
            "type": 1
          }
        },
        "name": "FeatureExtractor/MobilenetV2/expanded_conv_7/depthwise/depthwise_weights",
        "op": "Const"
      },
      {
        "input": [],
        "attr": {
          "value": {
            "tensor": {
              "floatVal": [],
              "doubleVal": [],
              "intVal": [],
              "stringVal": [],
              "scomplexVal": [],
              "int64Val": [],
              "boolVal": [],
              "uint32Val": [],
              "uint64Val": [],
              "dtype": 1,
              "tensorShape": {
                "dim": [
                  {
                    "size": "384"
                  }
                ]
              }
            }
          },
          "dtype": {
            "type": 1
          }
        },
        "name": "FeatureExtractor/MobilenetV2/expanded_conv_7/depthwise/BatchNorm/batchnorm/mul",
        "op": "Const"
      },
      {
        "input": [],
        "attr": {
          "value": {
            "tensor": {
              "floatVal": [],
              "doubleVal": [],
              "intVal": [],
              "stringVal": [],
              "scomplexVal": [],
              "int64Val": [],
              "boolVal": [],
              "uint32Val": [],
              "uint64Val": [],
              "dtype": 1,
              "tensorShape": {
                "dim": [
                  {
                    "size": "384"
                  }
                ]
              }
            }
          },
          "dtype": {
            "type": 1
          }
        },
        "name": "FeatureExtractor/MobilenetV2/expanded_conv_7/depthwise/BatchNorm/batchnorm/sub",
        "op": "Const"
      },
      {
        "input": [],
        "attr": {
          "value": {
            "tensor": {
              "floatVal": [],
              "doubleVal": [],
              "intVal": [],
              "stringVal": [],
              "scomplexVal": [],
              "int64Val": [],
              "boolVal": [],
              "uint32Val": [],
              "uint64Val": [],
              "dtype": 1,
              "tensorShape": {
                "dim": [
                  {
                    "size": "1"
                  },
                  {
                    "size": "1"
                  },
                  {
                    "size": "384"
                  },
                  {
                    "size": "64"
                  }
                ]
              }
            }
          },
          "dtype": {
            "type": 1
          }
        },
        "name": "FeatureExtractor/MobilenetV2/expanded_conv_7/project/Conv2D/merged_input",
        "op": "Const"
      },
      {
        "input": [],
        "attr": {
          "value": {
            "tensor": {
              "floatVal": [],
              "doubleVal": [],
              "intVal": [],
              "stringVal": [],
              "scomplexVal": [],
              "int64Val": [],
              "boolVal": [],
              "uint32Val": [],
              "uint64Val": [],
              "dtype": 1,
              "tensorShape": {
                "dim": [
                  {
                    "size": "32"
                  }
                ]
              }
            }
          },
          "dtype": {
            "type": 1
          }
        },
        "name": "FeatureExtractor/MobilenetV2/expanded_conv_5/project/BatchNorm/batchnorm/sub",
        "op": "Const"
      },
      {
        "input": [],
        "attr": {
          "value": {
            "tensor": {
              "floatVal": [],
              "doubleVal": [],
              "intVal": [],
              "stringVal": [],
              "scomplexVal": [],
              "int64Val": [],
              "boolVal": [],
              "uint32Val": [],
              "uint64Val": [],
              "dtype": 1,
              "tensorShape": {
                "dim": [
                  {
                    "size": "1"
                  },
                  {
                    "size": "1"
                  },
                  {
                    "size": "32"
                  },
                  {
                    "size": "192"
                  }
                ]
              }
            }
          },
          "dtype": {
            "type": 1
          }
        },
        "name": "FeatureExtractor/MobilenetV2/expanded_conv_5/expand/Conv2D/merged_input",
        "op": "Const"
      },
      {
        "input": [],
        "attr": {
          "value": {
            "tensor": {
              "floatVal": [],
              "doubleVal": [],
              "intVal": [],
              "stringVal": [],
              "scomplexVal": [],
              "int64Val": [],
              "boolVal": [],
              "uint32Val": [],
              "uint64Val": [],
              "dtype": 1,
              "tensorShape": {
                "dim": [
                  {
                    "size": "192"
                  }
                ]
              }
            }
          },
          "dtype": {
            "type": 1
          }
        },
        "name": "FeatureExtractor/MobilenetV2/expanded_conv_5/expand/BatchNorm/batchnorm/sub",
        "op": "Const"
      },
      {
        "input": [],
        "attr": {
          "dtype": {
            "type": 1
          },
          "value": {
            "tensor": {
              "floatVal": [],
              "doubleVal": [],
              "intVal": [],
              "stringVal": [],
              "scomplexVal": [],
              "int64Val": [],
              "boolVal": [],
              "uint32Val": [],
              "uint64Val": [],
              "dtype": 1,
              "tensorShape": {
                "dim": [
                  {
                    "size": "3"
                  },
                  {
                    "size": "3"
                  },
                  {
                    "size": "192"
                  },
                  {
                    "size": "1"
                  }
                ]
              }
            }
          }
        },
        "name": "FeatureExtractor/MobilenetV2/expanded_conv_5/depthwise/depthwise_weights",
        "op": "Const"
      },
      {
        "input": [],
        "attr": {
          "value": {
            "tensor": {
              "floatVal": [],
              "doubleVal": [],
              "intVal": [],
              "stringVal": [],
              "scomplexVal": [],
              "int64Val": [],
              "boolVal": [],
              "uint32Val": [],
              "uint64Val": [],
              "dtype": 1,
              "tensorShape": {
                "dim": [
                  {
                    "size": "192"
                  }
                ]
              }
            }
          },
          "dtype": {
            "type": 1
          }
        },
        "name": "FeatureExtractor/MobilenetV2/expanded_conv_5/depthwise/BatchNorm/batchnorm/mul",
        "op": "Const"
      },
      {
        "input": [],
        "attr": {
          "value": {
            "tensor": {
              "floatVal": [],
              "doubleVal": [],
              "intVal": [],
              "stringVal": [],
              "scomplexVal": [],
              "int64Val": [],
              "boolVal": [],
              "uint32Val": [],
              "uint64Val": [],
              "dtype": 1,
              "tensorShape": {
                "dim": [
                  {
                    "size": "192"
                  }
                ]
              }
            }
          },
          "dtype": {
            "type": 1
          }
        },
        "name": "FeatureExtractor/MobilenetV2/expanded_conv_5/depthwise/BatchNorm/batchnorm/sub",
        "op": "Const"
      },
      {
        "input": [],
        "attr": {
          "value": {
            "tensor": {
              "floatVal": [],
              "doubleVal": [],
              "intVal": [],
              "stringVal": [],
              "scomplexVal": [],
              "int64Val": [],
              "boolVal": [],
              "uint32Val": [],
              "uint64Val": [],
              "dtype": 1,
              "tensorShape": {
                "dim": [
                  {
                    "size": "1"
                  },
                  {
                    "size": "1"
                  },
                  {
                    "size": "192"
                  },
                  {
                    "size": "32"
                  }
                ]
              }
            }
          },
          "dtype": {
            "type": 1
          }
        },
        "name": "FeatureExtractor/MobilenetV2/expanded_conv_5/project/Conv2D/merged_input",
        "op": "Const"
      },
      {
        "input": [],
        "attr": {
          "value": {
            "tensor": {
              "floatVal": [],
              "doubleVal": [],
              "intVal": [],
              "stringVal": [],
              "scomplexVal": [],
              "int64Val": [],
              "boolVal": [],
              "uint32Val": [],
              "uint64Val": [],
              "dtype": 1,
              "tensorShape": {
                "dim": [
                  {
                    "size": "32"
                  }
                ]
              }
            }
          },
          "dtype": {
            "type": 1
          }
        },
        "name": "FeatureExtractor/MobilenetV2/expanded_conv_4/project/BatchNorm/batchnorm/sub",
        "op": "Const"
      },
      {
        "input": [],
        "attr": {
          "value": {
            "tensor": {
              "floatVal": [],
              "doubleVal": [],
              "intVal": [],
              "stringVal": [],
              "scomplexVal": [],
              "int64Val": [],
              "boolVal": [],
              "uint32Val": [],
              "uint64Val": [],
              "dtype": 1,
              "tensorShape": {
                "dim": [
                  {
                    "size": "1"
                  },
                  {
                    "size": "1"
                  },
                  {
                    "size": "32"
                  },
                  {
                    "size": "192"
                  }
                ]
              }
            }
          },
          "dtype": {
            "type": 1
          }
        },
        "name": "FeatureExtractor/MobilenetV2/expanded_conv_4/expand/Conv2D/merged_input",
        "op": "Const"
      },
      {
        "input": [],
        "attr": {
          "value": {
            "tensor": {
              "floatVal": [],
              "doubleVal": [],
              "intVal": [],
              "stringVal": [],
              "scomplexVal": [],
              "int64Val": [],
              "boolVal": [],
              "uint32Val": [],
              "uint64Val": [],
              "dtype": 1,
              "tensorShape": {
                "dim": [
                  {
                    "size": "192"
                  }
                ]
              }
            }
          },
          "dtype": {
            "type": 1
          }
        },
        "name": "FeatureExtractor/MobilenetV2/expanded_conv_4/expand/BatchNorm/batchnorm/sub",
        "op": "Const"
      },
      {
        "input": [],
        "attr": {
          "value": {
            "tensor": {
              "floatVal": [],
              "doubleVal": [],
              "intVal": [],
              "stringVal": [],
              "scomplexVal": [],
              "int64Val": [],
              "boolVal": [],
              "uint32Val": [],
              "uint64Val": [],
              "dtype": 1,
              "tensorShape": {
                "dim": [
                  {
                    "size": "3"
                  },
                  {
                    "size": "3"
                  },
                  {
                    "size": "192"
                  },
                  {
                    "size": "1"
                  }
                ]
              }
            }
          },
          "dtype": {
            "type": 1
          }
        },
        "name": "FeatureExtractor/MobilenetV2/expanded_conv_4/depthwise/depthwise_weights",
        "op": "Const"
      },
      {
        "input": [],
        "attr": {
          "value": {
            "tensor": {
              "floatVal": [],
              "doubleVal": [],
              "intVal": [],
              "stringVal": [],
              "scomplexVal": [],
              "int64Val": [],
              "boolVal": [],
              "uint32Val": [],
              "uint64Val": [],
              "dtype": 1,
              "tensorShape": {
                "dim": [
                  {
                    "size": "192"
                  }
                ]
              }
            }
          },
          "dtype": {
            "type": 1
          }
        },
        "name": "FeatureExtractor/MobilenetV2/expanded_conv_4/depthwise/BatchNorm/batchnorm/mul",
        "op": "Const"
      },
      {
        "input": [],
        "attr": {
          "value": {
            "tensor": {
              "floatVal": [],
              "doubleVal": [],
              "intVal": [],
              "stringVal": [],
              "scomplexVal": [],
              "int64Val": [],
              "boolVal": [],
              "uint32Val": [],
              "uint64Val": [],
              "dtype": 1,
              "tensorShape": {
                "dim": [
                  {
                    "size": "192"
                  }
                ]
              }
            }
          },
          "dtype": {
            "type": 1
          }
        },
        "name": "FeatureExtractor/MobilenetV2/expanded_conv_4/depthwise/BatchNorm/batchnorm/sub",
        "op": "Const"
      },
      {
        "input": [],
        "attr": {
          "value": {
            "tensor": {
              "floatVal": [],
              "doubleVal": [],
              "intVal": [],
              "stringVal": [],
              "scomplexVal": [],
              "int64Val": [],
              "boolVal": [],
              "uint32Val": [],
              "uint64Val": [],
              "dtype": 1,
              "tensorShape": {
                "dim": [
                  {
                    "size": "1"
                  },
                  {
                    "size": "1"
                  },
                  {
                    "size": "192"
                  },
                  {
                    "size": "32"
                  }
                ]
              }
            }
          },
          "dtype": {
            "type": 1
          }
        },
        "name": "FeatureExtractor/MobilenetV2/expanded_conv_4/project/Conv2D/merged_input",
        "op": "Const"
      },
      {
        "input": [],
        "attr": {
          "value": {
            "tensor": {
              "floatVal": [],
              "doubleVal": [],
              "intVal": [],
              "stringVal": [],
              "scomplexVal": [],
              "int64Val": [],
              "boolVal": [],
              "uint32Val": [],
              "uint64Val": [],
              "dtype": 1,
              "tensorShape": {
                "dim": [
                  {
                    "size": "24"
                  }
                ]
              }
            }
          },
          "dtype": {
            "type": 1
          }
        },
        "name": "FeatureExtractor/MobilenetV2/expanded_conv_2/project/BatchNorm/batchnorm/sub",
        "op": "Const"
      },
      {
        "input": [],
        "attr": {
          "value": {
            "tensor": {
              "floatVal": [],
              "doubleVal": [],
              "intVal": [],
              "stringVal": [],
              "scomplexVal": [],
              "int64Val": [],
              "boolVal": [],
              "uint32Val": [],
              "uint64Val": [],
              "dtype": 1,
              "tensorShape": {
                "dim": [
                  {
                    "size": "1"
                  },
                  {
                    "size": "1"
                  },
                  {
                    "size": "24"
                  },
                  {
                    "size": "144"
                  }
                ]
              }
            }
          },
          "dtype": {
            "type": 1
          }
        },
        "name": "FeatureExtractor/MobilenetV2/expanded_conv_2/expand/Conv2D/merged_input",
        "op": "Const"
      },
      {
        "input": [],
        "attr": {
          "value": {
            "tensor": {
              "floatVal": [],
              "doubleVal": [],
              "intVal": [],
              "stringVal": [],
              "scomplexVal": [],
              "int64Val": [],
              "boolVal": [],
              "uint32Val": [],
              "uint64Val": [],
              "dtype": 1,
              "tensorShape": {
                "dim": [
                  {
                    "size": "144"
                  }
                ]
              }
            }
          },
          "dtype": {
            "type": 1
          }
        },
        "name": "FeatureExtractor/MobilenetV2/expanded_conv_2/expand/BatchNorm/batchnorm/sub",
        "op": "Const"
      },
      {
        "input": [],
        "attr": {
          "value": {
            "tensor": {
              "floatVal": [],
              "doubleVal": [],
              "intVal": [],
              "stringVal": [],
              "scomplexVal": [],
              "int64Val": [],
              "boolVal": [],
              "uint32Val": [],
              "uint64Val": [],
              "dtype": 1,
              "tensorShape": {
                "dim": [
                  {
                    "size": "3"
                  },
                  {
                    "size": "3"
                  },
                  {
                    "size": "144"
                  },
                  {
                    "size": "1"
                  }
                ]
              }
            }
          },
          "dtype": {
            "type": 1
          }
        },
        "name": "FeatureExtractor/MobilenetV2/expanded_conv_2/depthwise/depthwise_weights",
        "op": "Const"
      },
      {
        "input": [],
        "attr": {
          "value": {
            "tensor": {
              "floatVal": [],
              "doubleVal": [],
              "intVal": [],
              "stringVal": [],
              "scomplexVal": [],
              "int64Val": [],
              "boolVal": [],
              "uint32Val": [],
              "uint64Val": [],
              "dtype": 1,
              "tensorShape": {
                "dim": [
                  {
                    "size": "144"
                  }
                ]
              }
            }
          },
          "dtype": {
            "type": 1
          }
        },
        "name": "FeatureExtractor/MobilenetV2/expanded_conv_2/depthwise/BatchNorm/batchnorm/mul",
        "op": "Const"
      },
      {
        "input": [],
        "attr": {
          "value": {
            "tensor": {
              "floatVal": [],
              "doubleVal": [],
              "intVal": [],
              "stringVal": [],
              "scomplexVal": [],
              "int64Val": [],
              "boolVal": [],
              "uint32Val": [],
              "uint64Val": [],
              "dtype": 1,
              "tensorShape": {
                "dim": [
                  {
                    "size": "144"
                  }
                ]
              }
            }
          },
          "dtype": {
            "type": 1
          }
        },
        "name": "FeatureExtractor/MobilenetV2/expanded_conv_2/depthwise/BatchNorm/batchnorm/sub",
        "op": "Const"
      },
      {
        "input": [],
        "attr": {
          "value": {
            "tensor": {
              "floatVal": [],
              "doubleVal": [],
              "intVal": [],
              "stringVal": [],
              "scomplexVal": [],
              "int64Val": [],
              "boolVal": [],
              "uint32Val": [],
              "uint64Val": [],
              "dtype": 1,
              "tensorShape": {
                "dim": [
                  {
                    "size": "1"
                  },
                  {
                    "size": "1"
                  },
                  {
                    "size": "144"
                  },
                  {
                    "size": "24"
                  }
                ]
              }
            }
          },
          "dtype": {
            "type": 1
          }
        },
        "name": "FeatureExtractor/MobilenetV2/expanded_conv_2/project/Conv2D/merged_input",
        "op": "Const"
      },
      {
        "input": [],
        "attr": {
          "dtype": {
            "type": 1
          },
          "value": {
            "tensor": {
              "floatVal": [],
              "doubleVal": [],
              "intVal": [],
              "stringVal": [],
              "scomplexVal": [],
              "int64Val": [],
              "boolVal": [],
              "uint32Val": [],
              "uint64Val": [],
              "dtype": 1,
              "tensorShape": {
                "dim": []
              }
            }
          }
        },
        "name": "Preprocessor/mul/x",
        "op": "Const"
      },
      {
        "input": [],
        "attr": {
          "value": {
            "tensor": {
              "floatVal": [],
              "doubleVal": [],
              "intVal": [
                0
              ],
              "stringVal": [],
              "scomplexVal": [],
              "int64Val": [],
              "boolVal": [],
              "uint32Val": [],
              "uint64Val": [],
              "dtype": 3,
              "tensorShape": {
                "dim": []
              }
            }
          },
          "dtype": {
            "type": 3
          }
        },
        "name": "Preprocessor/map/TensorArrayStack/range/start",
        "op": "Const"
      },
      {
        "input": [],
        "attr": {
          "value": {
            "tensor": {
              "floatVal": [],
              "doubleVal": [],
              "intVal": [],
              "stringVal": [],
              "scomplexVal": [],
              "int64Val": [],
              "boolVal": [],
              "uint32Val": [],
              "uint64Val": [],
              "dtype": 1,
              "tensorShape": {
                "dim": []
              }
            }
          },
          "dtype": {
            "type": 1
          }
        },
        "name": "Preprocessor/sub/y",
        "op": "Const"
      },
      {
        "input": [],
        "attr": {
          "dtype": {
            "type": 1
          },
          "value": {
            "tensor": {
              "floatVal": [],
              "doubleVal": [],
              "intVal": [],
              "stringVal": [],
              "scomplexVal": [],
              "int64Val": [],
              "boolVal": [],
              "uint32Val": [],
              "uint64Val": [],
              "dtype": 1,
              "tensorShape": {
                "dim": [
                  {
                    "size": "3"
                  },
                  {
                    "size": "3"
                  },
                  {
                    "size": "3"
                  },
                  {
                    "size": "32"
                  }
                ]
              }
            }
          }
        },
        "name": "FeatureExtractor/MobilenetV2/Conv/Conv2D/merged_input",
        "op": "Const"
      },
      {
        "input": [],
        "attr": {
          "value": {
            "tensor": {
              "floatVal": [],
              "doubleVal": [],
              "intVal": [],
              "stringVal": [],
              "scomplexVal": [],
              "int64Val": [],
              "boolVal": [],
              "uint32Val": [],
              "uint64Val": [],
              "dtype": 1,
              "tensorShape": {
                "dim": [
                  {
                    "size": "32"
                  }
                ]
              }
            }
          },
          "dtype": {
            "type": 1
          }
        },
        "name": "FeatureExtractor/MobilenetV2/Conv/BatchNorm/batchnorm/sub",
        "op": "Const"
      },
      {
        "input": [],
        "attr": {
          "dtype": {
            "type": 1
          },
          "value": {
            "tensor": {
              "floatVal": [],
              "doubleVal": [],
              "intVal": [],
              "stringVal": [],
              "scomplexVal": [],
              "int64Val": [],
              "boolVal": [],
              "uint32Val": [],
              "uint64Val": [],
              "dtype": 1,
              "tensorShape": {
                "dim": [
                  {
                    "size": "3"
                  },
                  {
                    "size": "3"
                  },
                  {
                    "size": "32"
                  },
                  {
                    "size": "1"
                  }
                ]
              }
            }
          }
        },
        "name": "FeatureExtractor/MobilenetV2/expanded_conv/depthwise/depthwise_weights",
        "op": "Const"
      },
      {
        "input": [],
        "attr": {
          "value": {
            "tensor": {
              "floatVal": [],
              "doubleVal": [],
              "intVal": [],
              "stringVal": [],
              "scomplexVal": [],
              "int64Val": [],
              "boolVal": [],
              "uint32Val": [],
              "uint64Val": [],
              "dtype": 1,
              "tensorShape": {
                "dim": [
                  {
                    "size": "32"
                  }
                ]
              }
            }
          },
          "dtype": {
            "type": 1
          }
        },
        "name": "FeatureExtractor/MobilenetV2/expanded_conv/depthwise/BatchNorm/batchnorm/mul",
        "op": "Const"
      },
      {
        "input": [],
        "attr": {
          "value": {
            "tensor": {
              "floatVal": [],
              "doubleVal": [],
              "intVal": [],
              "stringVal": [],
              "scomplexVal": [],
              "int64Val": [],
              "boolVal": [],
              "uint32Val": [],
              "uint64Val": [],
              "dtype": 1,
              "tensorShape": {
                "dim": [
                  {
                    "size": "32"
                  }
                ]
              }
            }
          },
          "dtype": {
            "type": 1
          }
        },
        "name": "FeatureExtractor/MobilenetV2/expanded_conv/depthwise/BatchNorm/batchnorm/sub",
        "op": "Const"
      },
      {
        "input": [],
        "attr": {
          "value": {
            "tensor": {
              "floatVal": [],
              "doubleVal": [],
              "intVal": [],
              "stringVal": [],
              "scomplexVal": [],
              "int64Val": [],
              "boolVal": [],
              "uint32Val": [],
              "uint64Val": [],
              "dtype": 1,
              "tensorShape": {
                "dim": [
                  {
                    "size": "1"
                  },
                  {
                    "size": "1"
                  },
                  {
                    "size": "32"
                  },
                  {
                    "size": "16"
                  }
                ]
              }
            }
          },
          "dtype": {
            "type": 1
          }
        },
        "name": "FeatureExtractor/MobilenetV2/expanded_conv/project/Conv2D/merged_input",
        "op": "Const"
      },
      {
        "input": [],
        "attr": {
          "value": {
            "tensor": {
              "floatVal": [],
              "doubleVal": [],
              "intVal": [],
              "stringVal": [],
              "scomplexVal": [],
              "int64Val": [],
              "boolVal": [],
              "uint32Val": [],
              "uint64Val": [],
              "dtype": 1,
              "tensorShape": {
                "dim": [
                  {
                    "size": "16"
                  }
                ]
              }
            }
          },
          "dtype": {
            "type": 1
          }
        },
        "name": "FeatureExtractor/MobilenetV2/expanded_conv/project/BatchNorm/batchnorm/sub",
        "op": "Const"
      },
      {
        "input": [],
        "attr": {
          "value": {
            "tensor": {
              "floatVal": [],
              "doubleVal": [],
              "intVal": [],
              "stringVal": [],
              "scomplexVal": [],
              "int64Val": [],
              "boolVal": [],
              "uint32Val": [],
              "uint64Val": [],
              "dtype": 1,
              "tensorShape": {
                "dim": [
                  {
                    "size": "1"
                  },
                  {
                    "size": "1"
                  },
                  {
                    "size": "16"
                  },
                  {
                    "size": "96"
                  }
                ]
              }
            }
          },
          "dtype": {
            "type": 1
          }
        },
        "name": "FeatureExtractor/MobilenetV2/expanded_conv_1/expand/Conv2D/merged_input",
        "op": "Const"
      },
      {
        "input": [],
        "attr": {
          "value": {
            "tensor": {
              "floatVal": [],
              "doubleVal": [],
              "intVal": [],
              "stringVal": [],
              "scomplexVal": [],
              "int64Val": [],
              "boolVal": [],
              "uint32Val": [],
              "uint64Val": [],
              "dtype": 1,
              "tensorShape": {
                "dim": [
                  {
                    "size": "96"
                  }
                ]
              }
            }
          },
          "dtype": {
            "type": 1
          }
        },
        "name": "FeatureExtractor/MobilenetV2/expanded_conv_1/expand/BatchNorm/batchnorm/sub",
        "op": "Const"
      },
      {
        "input": [],
        "attr": {
          "value": {
            "tensor": {
              "floatVal": [],
              "doubleVal": [],
              "intVal": [],
              "stringVal": [],
              "scomplexVal": [],
              "int64Val": [],
              "boolVal": [],
              "uint32Val": [],
              "uint64Val": [],
              "dtype": 1,
              "tensorShape": {
                "dim": [
                  {
                    "size": "3"
                  },
                  {
                    "size": "3"
                  },
                  {
                    "size": "96"
                  },
                  {
                    "size": "1"
                  }
                ]
              }
            }
          },
          "dtype": {
            "type": 1
          }
        },
        "name": "FeatureExtractor/MobilenetV2/expanded_conv_1/depthwise/depthwise_weights",
        "op": "Const"
      },
      {
        "input": [],
        "attr": {
          "value": {
            "tensor": {
              "floatVal": [],
              "doubleVal": [],
              "intVal": [],
              "stringVal": [],
              "scomplexVal": [],
              "int64Val": [],
              "boolVal": [],
              "uint32Val": [],
              "uint64Val": [],
              "dtype": 1,
              "tensorShape": {
                "dim": [
                  {
                    "size": "96"
                  }
                ]
              }
            }
          },
          "dtype": {
            "type": 1
          }
        },
        "name": "FeatureExtractor/MobilenetV2/expanded_conv_1/depthwise/BatchNorm/batchnorm/mul",
        "op": "Const"
…
          "shape": [
            1280
          ],
          "dtype": "float32",
          "name": "BoxPredictor_1/BoxEncodingPredictor_depthwise/BatchNorm/beta"
        },
        {
          "shape": [
            1280
          ],
          "dtype": "float32",
          "name": "BoxPredictor_1/BoxEncodingPredictor_depthwise/BatchNorm/moving_mean"
        },
        {
          "shape": [
            1280
          ],
          "dtype": "float32",
          "name": "BoxPredictor_1/BoxEncodingPredictor_depthwise/BatchNorm/moving_variance"
        },
        {
          "shape": [
            1,
            1,
            1280,
            24
          ],
          "dtype": "float32",
          "name": "BoxPredictor_1/BoxEncodingPredictor/weights"
        },
        {
          "shape": [
            24
          ],
          "dtype": "float32",
          "name": "BoxPredictor_1/BoxEncodingPredictor/biases"
        },
        {
          "shape": [
            3,
            3,
            512,
            1
          ],
          "dtype": "float32",
          "name": "BoxPredictor_2/BoxEncodingPredictor_depthwise/depthwise_weights"
        },
        {
          "shape": [
            512
          ],
          "dtype": "float32",
          "name": "BoxPredictor_2/BoxEncodingPredictor_depthwise/BatchNorm/gamma"
        },
        {
          "shape": [
            512
          ],
          "dtype": "float32",
          "name": "BoxPredictor_2/BoxEncodingPredictor_depthwise/BatchNorm/beta"
        },
        {
          "shape": [
            512
          ],
          "dtype": "float32",
          "name": "BoxPredictor_2/BoxEncodingPredictor_depthwise/BatchNorm/moving_mean"
        },
        {
          "shape": [
            512
          ],
          "dtype": "float32",
          "name": "BoxPredictor_2/BoxEncodingPredictor_depthwise/BatchNorm/moving_variance"
        },
        {
          "shape": [
            1,
            1,
            512,
            24
          ],
          "dtype": "float32",
          "name": "BoxPredictor_2/BoxEncodingPredictor/weights"
        },
        {
          "shape": [
            24
          ],
          "dtype": "float32",
          "name": "BoxPredictor_2/BoxEncodingPredictor/biases"
        },
        {
          "shape": [
            3,
            3,
            256,
            1
          ],
          "dtype": "float32",
          "name": "BoxPredictor_3/BoxEncodingPredictor_depthwise/depthwise_weights"
        },
        {
          "shape": [
            256
          ],
          "dtype": "float32",
          "name": "BoxPredictor_3/BoxEncodingPredictor_depthwise/BatchNorm/gamma"
        },
        {
          "shape": [
            256
          ],
          "dtype": "float32",
          "name": "BoxPredictor_3/BoxEncodingPredictor_depthwise/BatchNorm/beta"
        },
        {
          "shape": [
            256
          ],
          "dtype": "float32",
          "name": "BoxPredictor_3/BoxEncodingPredictor_depthwise/BatchNorm/moving_mean"
        },
        {
          "shape": [
            256
          ],
          "dtype": "float32",
          "name": "BoxPredictor_3/BoxEncodingPredictor_depthwise/BatchNorm/moving_variance"
        },
        {
          "shape": [
            1,
            1,
            256,
            24
          ],
          "dtype": "float32",
          "name": "BoxPredictor_3/BoxEncodingPredictor/weights"
        },
        {
          "shape": [
            24
          ],
          "dtype": "float32",
          "name": "BoxPredictor_3/BoxEncodingPredictor/biases"
        },
        {
          "shape": [
            3,
            3,
            256,
            1
          ],
          "dtype": "float32",
          "name": "BoxPredictor_4/BoxEncodingPredictor_depthwise/depthwise_weights"
        },
        {
          "shape": [
            256
          ],
          "dtype": "float32",
          "name": "BoxPredictor_4/BoxEncodingPredictor_depthwise/BatchNorm/gamma"
        },
        {
          "shape": [
            256
          ],
          "dtype": "float32",
          "name": "BoxPredictor_4/BoxEncodingPredictor_depthwise/BatchNorm/beta"
        },
        {
          "shape": [
            256
          ],
          "dtype": "float32",
          "name": "BoxPredictor_4/BoxEncodingPredictor_depthwise/BatchNorm/moving_mean"
        },
        {
          "shape": [
            256
          ],
          "dtype": "float32",
          "name": "BoxPredictor_4/BoxEncodingPredictor_depthwise/BatchNorm/moving_variance"
        },
        {
          "shape": [
            1,
            1,
            256,
            24
          ],
          "dtype": "float32",
          "name": "BoxPredictor_4/BoxEncodingPredictor/weights"
        },
        {
          "shape": [
            24
          ],
          "dtype": "float32",
          "name": "BoxPredictor_4/BoxEncodingPredictor/biases"
        },
        {
          "shape": [
            3,
            3,
            128,
            1
          ],
          "dtype": "float32",
          "name": "BoxPredictor_5/BoxEncodingPredictor_depthwise/depthwise_weights"
        },
        {
          "shape": [
            128
          ],
          "dtype": "float32",
          "name": "BoxPredictor_5/BoxEncodingPredictor_depthwise/BatchNorm/gamma"
        },
        {
          "shape": [
            128
          ],
          "dtype": "float32",
          "name": "BoxPredictor_5/BoxEncodingPredictor_depthwise/BatchNorm/beta"
        },
        {
          "shape": [
            128
          ],
          "dtype": "float32",
          "name": "BoxPredictor_5/BoxEncodingPredictor_depthwise/BatchNorm/moving_mean"
        },
        {
          "shape": [
            128
          ],
          "dtype": "float32",
          "name": "BoxPredictor_5/BoxEncodingPredictor_depthwise/BatchNorm/moving_variance"
        },
        {
          "shape": [
            1,
            1,
            128,
            24
          ],
          "dtype": "float32",
          "name": "BoxPredictor_5/BoxEncodingPredictor/weights"
        },
        {
          "shape": [
            24
          ],
          "dtype": "float32",
          "name": "BoxPredictor_5/BoxEncodingPredictor/biases"
        },
        {
          "shape": [],
          "dtype": "int32",
          "name": "MultipleGridAnchorGenerator/assert_equal/x"
        },
        {
          "shape": [],
          "dtype": "int32",
          "name": "BoxPredictor_0/stack/3"
        },
        {
          "shape": [],
          "dtype": "int32",
          "name": "Postprocessor/ExpandDims_1/dim"
        },
        {
          "shape": [
            3,
            3,
            576,
            1
          ],
          "dtype": "float32",
          "name": "BoxPredictor_0/ClassPredictor_depthwise/depthwise_weights"
        },
        {
          "shape": [
            576
          ],
          "dtype": "float32",
          "name": "BoxPredictor_0/ClassPredictor_depthwise/BatchNorm/gamma"
        },
        {
          "shape": [
            576
          ],
          "dtype": "float32",
          "name": "BoxPredictor_0/ClassPredictor_depthwise/BatchNorm/beta"
        },
        {
          "shape": [
            576
          ],
          "dtype": "float32",
          "name": "BoxPredictor_0/ClassPredictor_depthwise/BatchNorm/moving_mean"
        },
        {
          "shape": [
            576
          ],
          "dtype": "float32",
          "name": "BoxPredictor_0/ClassPredictor_depthwise/BatchNorm/moving_variance"
        },
        {
          "shape": [
            1,
            1,
            576,
            273
          ],
          "dtype": "float32",
          "name": "BoxPredictor_0/ClassPredictor/weights"
        },
        {
          "shape": [
            273
          ],
          "dtype": "float32",
          "name": "BoxPredictor_0/ClassPredictor/biases"
        },
        {
          "shape": [],
          "dtype": "int32",
          "name": "BoxPredictor_0/stack/1"
        },
        {
          "shape": [
            3,
            3,
            1280,
            1
          ],
          "dtype": "float32",
          "name": "BoxPredictor_1/ClassPredictor_depthwise/depthwise_weights"
        },
        {
          "shape": [
            1280
          ],
          "dtype": "float32",
          "name": "BoxPredictor_1/ClassPredictor_depthwise/BatchNorm/gamma"
        },
        {
          "shape": [
            1280
          ],
          "dtype": "float32",
          "name": "BoxPredictor_1/ClassPredictor_depthwise/BatchNorm/beta"
        },
        {
          "shape": [
            1280
          ],
          "dtype": "float32",
          "name": "BoxPredictor_1/ClassPredictor_depthwise/BatchNorm/moving_mean"
        },
        {
          "shape": [
            1280
          ],
          "dtype": "float32",
          "name": "BoxPredictor_1/ClassPredictor_depthwise/BatchNorm/moving_variance"
        },
        {
          "shape": [
            1,
            1,
            1280,
            546
          ],
          "dtype": "float32",
          "name": "BoxPredictor_1/ClassPredictor/weights"
        },
        {
          "shape": [
            546
          ],
          "dtype": "float32",
          "name": "BoxPredictor_1/ClassPredictor/biases"
        },
        {
          "shape": [],
          "dtype": "int32",
          "name": "BoxPredictor_1/stack/1"
        },
        {
          "shape": [
            3,
            3,
            512,
            1
          ],
          "dtype": "float32",
          "name": "BoxPredictor_2/ClassPredictor_depthwise/depthwise_weights"
        },
        {
          "shape": [
            512
          ],
          "dtype": "float32",
          "name": "BoxPredictor_2/ClassPredictor_depthwise/BatchNorm/gamma"
        },
        {
          "shape": [
            512
          ],
          "dtype": "float32",
          "name": "BoxPredictor_2/ClassPredictor_depthwise/BatchNorm/beta"
        },
        {
          "shape": [
            512
          ],
          "dtype": "float32",
          "name": "BoxPredictor_2/ClassPredictor_depthwise/BatchNorm/moving_mean"
        },
        {
          "shape": [
            512
          ],
          "dtype": "float32",
          "name": "BoxPredictor_2/ClassPredictor_depthwise/BatchNorm/moving_variance"
        },
        {
          "shape": [
            1,
            1,
            512,
            546
          ],
          "dtype": "float32",
          "name": "BoxPredictor_2/ClassPredictor/weights"
        },
        {
          "shape": [
            546
          ],
          "dtype": "float32",
          "name": "BoxPredictor_2/ClassPredictor/biases"
        },
        {
          "shape": [],
          "dtype": "int32",
          "name": "BoxPredictor_2/stack/1"
        },
        {
          "shape": [
            3,
            3,
            256,
            1
          ],
          "dtype": "float32",
          "name": "BoxPredictor_3/ClassPredictor_depthwise/depthwise_weights"
        },
        {
          "shape": [
            256
          ],
          "dtype": "float32",
          "name": "BoxPredictor_3/ClassPredictor_depthwise/BatchNorm/gamma"
        },
        {
          "shape": [
            256
          ],
          "dtype": "float32",
          "name": "BoxPredictor_3/ClassPredictor_depthwise/BatchNorm/beta"
        },
        {
          "shape": [
            256
          ],
          "dtype": "float32",
          "name": "BoxPredictor_3/ClassPredictor_depthwise/BatchNorm/moving_mean"
        },
        {
          "shape": [
            256
          ],
          "dtype": "float32",
          "name": "BoxPredictor_3/ClassPredictor_depthwise/BatchNorm/moving_variance"
        },
        {
          "shape": [
            1,
            1,
            256,
            546
          ],
          "dtype": "float32",
          "name": "BoxPredictor_3/ClassPredictor/weights"
        },
        {
          "shape": [
            546
          ],
          "dtype": "float32",
          "name": "BoxPredictor_3/ClassPredictor/biases"
        },
        {
          "shape": [],
          "dtype": "int32",
          "name": "BoxPredictor_3/stack/1"
        },
        {
          "shape": [
            3,
            3,
            256,
            1
          ],
          "dtype": "float32",
          "name": "BoxPredictor_4/ClassPredictor_depthwise/depthwise_weights"
        },
        {
          "shape": [
            256
          ],
          "dtype": "float32",
          "name": "BoxPredictor_4/ClassPredictor_depthwise/BatchNorm/gamma"
        },
        {
          "shape": [
            256
          ],
          "dtype": "float32",
          "name": "BoxPredictor_4/ClassPredictor_depthwise/BatchNorm/beta"
        },
        {
          "shape": [
            256
          ],
          "dtype": "float32",
          "name": "BoxPredictor_4/ClassPredictor_depthwise/BatchNorm/moving_mean"
        },
        {
          "shape": [
            256
          ],
          "dtype": "float32",
          "name": "BoxPredictor_4/ClassPredictor_depthwise/BatchNorm/moving_variance"
        },
        {
          "shape": [
            1,
            1,
            256,
            546
          ],
          "dtype": "float32",
          "name": "BoxPredictor_4/ClassPredictor/weights"
        },
        {
          "shape": [
            546
          ],
          "dtype": "float32",
          "name": "BoxPredictor_4/ClassPredictor/biases"
        },
        {
          "shape": [],
          "dtype": "int32",
          "name": "BoxPredictor_4/stack/1"
        },
        {
          "shape": [
            3,
            3,
            128,
            1
          ],
          "dtype": "float32",
          "name": "BoxPredictor_5/ClassPredictor_depthwise/depthwise_weights"
        },
        {
          "shape": [
            128
          ],
          "dtype": "float32",
          "name": "BoxPredictor_5/ClassPredictor_depthwise/BatchNorm/gamma"
        },
        {
          "shape": [
            128
          ],
          "dtype": "float32",
          "name": "BoxPredictor_5/ClassPredictor_depthwise/BatchNorm/beta"
        },
        {
          "shape": [
            128
          ],
          "dtype": "float32",
          "name": "BoxPredictor_5/ClassPredictor_depthwise/BatchNorm/moving_mean"
        },
        {
          "shape": [
            128
          ],
          "dtype": "float32",
          "name": "BoxPredictor_5/ClassPredictor_depthwise/BatchNorm/moving_variance"
        },
        {
          "shape": [
            1,
            1,
            128,
            546
          ],
          "dtype": "float32",
          "name": "BoxPredictor_5/ClassPredictor/weights"
        },
        {
          "shape": [
            546
          ],
          "dtype": "float32",
          "name": "BoxPredictor_5/ClassPredictor/biases"
        },
        {
          "shape": [
            160
          ],
          "dtype": "float32",
          "name": "FeatureExtractor/MobilenetV2/expanded_conv_15/project/BatchNorm/batchnorm/sub"
        },
        {
          "shape": [
            1,
            1,
            160,
            960
          ],
          "dtype": "float32",
          "name": "FeatureExtractor/MobilenetV2/expanded_conv_15/expand/Conv2D/merged_input"
        },
        {
          "shape": [
            960
          ],
          "dtype": "float32",
          "name": "FeatureExtractor/MobilenetV2/expanded_conv_15/expand/BatchNorm/batchnorm/sub"
        },
        {
          "shape": [
            3,
            3,
            960,
            1
          ],
          "dtype": "float32",
          "name": "FeatureExtractor/MobilenetV2/expanded_conv_15/depthwise/depthwise_weights"
        },
        {
          "shape": [
            960
          ],
          "dtype": "float32",
          "name": "FeatureExtractor/MobilenetV2/expanded_conv_15/depthwise/BatchNorm/batchnorm/mul"
        },
        {
          "shape": [
            960
          ],
          "dtype": "float32",
          "name": "FeatureExtractor/MobilenetV2/expanded_conv_15/depthwise/BatchNorm/batchnorm/sub"
        },
        {
          "shape": [
            1,
            1,
            960,
            160
          ],
          "dtype": "float32",
          "name": "FeatureExtractor/MobilenetV2/expanded_conv_15/project/Conv2D/merged_input"
        },
        {
          "shape": [
            160
          ],
          "dtype": "float32",
          "name": "FeatureExtractor/MobilenetV2/expanded_conv_14/project/BatchNorm/batchnorm/sub"
        },
        {
          "shape": [
            1,
            1,
            160,
            960
          ],
          "dtype": "float32",
          "name": "FeatureExtractor/MobilenetV2/expanded_conv_14/expand/Conv2D/merged_input"
        },
        {
          "shape": [
            960
          ],
          "dtype": "float32",
          "name": "FeatureExtractor/MobilenetV2/expanded_conv_14/expand/BatchNorm/batchnorm/sub"
        },
        {
          "shape": [
            3,
            3,
            960,
            1
          ],
          "dtype": "float32",
          "name": "FeatureExtractor/MobilenetV2/expanded_conv_14/depthwise/depthwise_weights"
        },
        {
          "shape": [
            960
          ],
          "dtype": "float32",
          "name": "FeatureExtractor/MobilenetV2/expanded_conv_14/depthwise/BatchNorm/batchnorm/mul"
        },
        {
          "shape": [
            960
          ],
          "dtype": "float32",
          "name": "FeatureExtractor/MobilenetV2/expanded_conv_14/depthwise/BatchNorm/batchnorm/sub"
        },
        {
          "shape": [
            1,
            1,
            960,
            160
          ],
          "dtype": "float32",
          "name": "FeatureExtractor/MobilenetV2/expanded_conv_14/project/Conv2D/merged_input"
        },
        {
          "shape": [
            96
          ],
          "dtype": "float32",
          "name": "FeatureExtractor/MobilenetV2/expanded_conv_12/project/BatchNorm/batchnorm/sub"
        },
        {
          "shape": [
            1,
            1,
            96,
            576
          ],
          "dtype": "float32",
          "name": "FeatureExtractor/MobilenetV2/expanded_conv_12/expand/Conv2D/merged_input"
        },
        {
          "shape": [
            576
          ],
          "dtype": "float32",
          "name": "FeatureExtractor/MobilenetV2/expanded_conv_12/expand/BatchNorm/batchnorm/sub"
        },
        {
          "shape": [
            3,
            3,
            576,
            1
          ],
          "dtype": "float32",
          "name": "FeatureExtractor/MobilenetV2/expanded_conv_12/depthwise/depthwise_weights"
        },
        {
          "shape": [
            576
          ],
          "dtype": "float32",
          "name": "FeatureExtractor/MobilenetV2/expanded_conv_12/depthwise/BatchNorm/batchnorm/mul"
        },
        {
          "shape": [
            576
          ],
          "dtype": "float32",
          "name": "FeatureExtractor/MobilenetV2/expanded_conv_12/depthwise/BatchNorm/batchnorm/sub"
        },
        {
          "shape": [
            1,
            1,
            576,
            96
          ],
          "dtype": "float32",
          "name": "FeatureExtractor/MobilenetV2/expanded_conv_12/project/Conv2D/merged_input"
        },
        {
          "shape": [
            96
          ],
          "dtype": "float32",
          "name": "FeatureExtractor/MobilenetV2/expanded_conv_11/project/BatchNorm/batchnorm/sub"
        },
        {
          "shape": [
            1,
            1,
            96,
            576
          ],
          "dtype": "float32",
          "name": "FeatureExtractor/MobilenetV2/expanded_conv_11/expand/Conv2D/merged_input"
        },
        {
          "shape": [
            576
          ],
          "dtype": "float32",
          "name": "FeatureExtractor/MobilenetV2/expanded_conv_11/expand/BatchNorm/batchnorm/sub"
        },
        {
          "shape": [
            3,
            3,
            576,
            1
          ],
          "dtype": "float32",
          "name": "FeatureExtractor/MobilenetV2/expanded_conv_11/depthwise/depthwise_weights"
        },
        {
          "shape": [
            576
          ],
          "dtype": "float32",
          "name": "FeatureExtractor/MobilenetV2/expanded_conv_11/depthwise/BatchNorm/batchnorm/mul"
        },
        {
          "shape": [
            576
          ],
          "dtype": "float32",
          "name": "FeatureExtractor/MobilenetV2/expanded_conv_11/depthwise/BatchNorm/batchnorm/sub"
        },
        {
          "shape": [
            1,
            1,
            576,
            96
          ],
          "dtype": "float32",
          "name": "FeatureExtractor/MobilenetV2/expanded_conv_11/project/Conv2D/merged_input"
        },
        {
          "shape": [
            64
          ],
          "dtype": "float32",
          "name": "FeatureExtractor/MobilenetV2/expanded_conv_9/project/BatchNorm/batchnorm/sub"
        },
        {
          "shape": [
            1,
            1,
            64,
            384
          ],
          "dtype": "float32",
          "name": "FeatureExtractor/MobilenetV2/expanded_conv_9/expand/Conv2D/merged_input"
        },
        {
          "shape": [
            384
          ],
          "dtype": "float32",
          "name": "FeatureExtractor/MobilenetV2/expanded_conv_9/expand/BatchNorm/batchnorm/sub"
        },
        {
          "shape": [
            3,
            3,
            384,
            1
          ],
          "dtype": "float32",
          "name": "FeatureExtractor/MobilenetV2/expanded_conv_9/depthwise/depthwise_weights"
        },
        {
          "shape": [
            384
          ],
          "dtype": "float32",
          "name": "FeatureExtractor/MobilenetV2/expanded_conv_9/depthwise/BatchNorm/batchnorm/mul"
        },
        {
          "shape": [
            384
          ],
          "dtype": "float32",
          "name": "FeatureExtractor/MobilenetV2/expanded_conv_9/depthwise/BatchNorm/batchnorm/sub"
        },
        {
          "shape": [
            1,
            1,
            384,
            64
          ],
          "dtype": "float32",
          "name": "FeatureExtractor/MobilenetV2/expanded_conv_9/project/Conv2D/merged_input"
        },
        {
          "shape": [
            64
          ],
          "dtype": "float32",
          "name": "FeatureExtractor/MobilenetV2/expanded_conv_8/project/BatchNorm/batchnorm/sub"
        },
        {
          "shape": [
            1,
            1,
            64,
            384
          ],
          "dtype": "float32",
          "name": "FeatureExtractor/MobilenetV2/expanded_conv_8/expand/Conv2D/merged_input"
        },
        {
          "shape": [
            384
          ],
          "dtype": "float32",
          "name": "FeatureExtractor/MobilenetV2/expanded_conv_8/expand/BatchNorm/batchnorm/sub"
        },
        {
          "shape": [
            3,
            3,
            384,
            1
          ],
          "dtype": "float32",
          "name": "FeatureExtractor/MobilenetV2/expanded_conv_8/depthwise/depthwise_weights"
        },
        {
          "shape": [
            384
          ],
          "dtype": "float32",
          "name": "FeatureExtractor/MobilenetV2/expanded_conv_8/depthwise/BatchNorm/batchnorm/mul"
        },
        {
          "shape": [
            384
          ],
          "dtype": "float32",
          "name": "FeatureExtractor/MobilenetV2/expanded_conv_8/depthwise/BatchNorm/batchnorm/sub"
        },
        {
          "shape": [
            1,
            1,
            384,
            64
          ],
          "dtype": "float32",
          "name": "FeatureExtractor/MobilenetV2/expanded_conv_8/project/Conv2D/merged_input"
        },
        {
          "shape": [
            64
          ],
          "dtype": "float32",
          "name": "FeatureExtractor/MobilenetV2/expanded_conv_7/project/BatchNorm/batchnorm/sub"
        },
        {
          "shape": [
            1,
            1,
            64,
            384
          ],
          "dtype": "float32",
          "name": "FeatureExtractor/MobilenetV2/expanded_conv_7/expand/Conv2D/merged_input"
        },
        {
          "shape": [
            384
          ],
          "dtype": "float32",
          "name": "FeatureExtractor/MobilenetV2/expanded_conv_7/expand/BatchNorm/batchnorm/sub"
        },
        {
          "shape": [
            3,
            3,
            384,
            1
          ],
          "dtype": "float32",
          "name": "FeatureExtractor/MobilenetV2/expanded_conv_7/depthwise/depthwise_weights"
        },
        {
          "shape": [
            384
          ],
          "dtype": "float32",
          "name": "FeatureExtractor/MobilenetV2/expanded_conv_7/depthwise/BatchNorm/batchnorm/mul"
        },
        {
          "shape": [
            384
          ],
          "dtype": "float32",
          "name": "FeatureExtractor/MobilenetV2/expanded_conv_7/depthwise/BatchNorm/batchnorm/sub"
        },
        {
          "shape": [
            1,
            1,
            384,
            64
          ],
          "dtype": "float32",
          "name": "FeatureExtractor/MobilenetV2/expanded_conv_7/project/Conv2D/merged_input"
        },
        {
          "shape": [
            32
          ],
          "dtype": "float32",
          "name": "FeatureExtractor/MobilenetV2/expanded_conv_5/project/BatchNorm/batchnorm/sub"
        },
        {
          "shape": [
            1,
            1,
            32,
            192
          ],
          "dtype": "float32",
          "name": "FeatureExtractor/MobilenetV2/expanded_conv_5/expand/Conv2D/merged_input"
        },
        {
          "shape": [
            192
          ],
          "dtype": "float32",
          "name": "FeatureExtractor/MobilenetV2/expanded_conv_5/expand/BatchNorm/batchnorm/sub"
        },
        {
          "shape": [
            3,
            3,
            192,
            1
          ],
          "dtype": "float32",
          "name": "FeatureExtractor/MobilenetV2/expanded_conv_5/depthwise/depthwise_weights"
        },
        {
          "shape": [
            192
          ],
          "dtype": "float32",
          "name": "FeatureExtractor/MobilenetV2/expanded_conv_5/depthwise/BatchNorm/batchnorm/mul"
        },
        {
          "shape": [
            192
          ],
          "dtype": "float32",
          "name": "FeatureExtractor/MobilenetV2/expanded_conv_5/depthwise/BatchNorm/batchnorm/sub"
        },
        {
          "shape": [
            1,
            1,
            192,
            32
          ],
          "dtype": "float32",
          "name": "FeatureExtractor/MobilenetV2/expanded_conv_5/project/Conv2D/merged_input"
        },
        {
          "shape": [
            32
          ],
          "dtype": "float32",
          "name": "FeatureExtractor/MobilenetV2/expanded_conv_4/project/BatchNorm/batchnorm/sub"
        },
        {
          "shape": [
            1,
            1,
            32,
            192
          ],
          "dtype": "float32",
          "name": "FeatureExtractor/MobilenetV2/expanded_conv_4/expand/Conv2D/merged_input"
        },
        {
          "shape": [
            192
          ],
          "dtype": "float32",
          "name": "FeatureExtractor/MobilenetV2/expanded_conv_4/expand/BatchNorm/batchnorm/sub"
        },
        {
          "shape": [
            3,
            3,
            192,
            1
          ],
          "dtype": "float32",
          "name": "FeatureExtractor/MobilenetV2/expanded_conv_4/depthwise/depthwise_weights"
        },
        {
          "shape": [
            192
          ],
          "dtype": "float32",
          "name": "FeatureExtractor/MobilenetV2/expanded_conv_4/depthwise/BatchNorm/batchnorm/mul"
        },
        {
          "shape": [
            192
          ],
          "dtype": "float32",
          "name": "FeatureExtractor/MobilenetV2/expanded_conv_4/depthwise/BatchNorm/batchnorm/sub"
        },
        {
          "shape": [
            1,
            1,
            192,
            32
          ],
          "dtype": "float32",
          "name": "FeatureExtractor/MobilenetV2/expanded_conv_4/project/Conv2D/merged_input"
        },
        {
          "shape": [
            24
          ],
          "dtype": "float32",
          "name": "FeatureExtractor/MobilenetV2/expanded_conv_2/project/BatchNorm/batchnorm/sub"
        },
        {
          "shape": [
            1,
            1,
            24,
            144
          ],
          "dtype": "float32",
          "name": "FeatureExtractor/MobilenetV2/expanded_conv_2/expand/Conv2D/merged_input"
        },
        {
          "shape": [
            144
          ],
          "dtype": "float32",
          "name": "FeatureExtractor/MobilenetV2/expanded_conv_2/expand/BatchNorm/batchnorm/sub"
        },
        {
          "shape": [
            3,
            3,
            144,
            1
          ],
          "dtype": "float32",
          "name": "FeatureExtractor/MobilenetV2/expanded_conv_2/depthwise/depthwise_weights"
        },
        {
          "shape": [
            144
          ],
          "dtype": "float32",
          "name": "FeatureExtractor/MobilenetV2/expanded_conv_2/depthwise/BatchNorm/batchnorm/mul"
        },
        {
          "shape": [
            144
          ],
          "dtype": "float32",
          "name": "FeatureExtractor/MobilenetV2/expanded_conv_2/depthwise/BatchNorm/batchnorm/sub"
        },
        {
          "shape": [
            1,
            1,
            144,
            24
          ],
          "dtype": "float32",
          "name": "FeatureExtractor/MobilenetV2/expanded_conv_2/project/Conv2D/merged_input"
        },
        {
          "shape": [],
          "dtype": "float32",
          "name": "Preprocessor/mul/x"
        },
        {
          "shape": [],
          "dtype": "int32",
          "name": "Preprocessor/map/TensorArrayStack/range/start"
        },
        {
          "shape": [],
          "dtype": "float32",
          "name": "Preprocessor/sub/y"
        },
        {
          "shape": [
            3,
            3,
            3,
            32
          ],
          "dtype": "float32",
          "name": "FeatureExtractor/MobilenetV2/Conv/Conv2D/merged_input"
        },
        {
          "shape": [
            32
          ],
          "dtype": "float32",
          "name": "FeatureExtractor/MobilenetV2/Conv/BatchNorm/batchnorm/sub"
        },
        {
          "shape": [
            3,
            3,
            32,
            1
          ],
          "dtype": "float32",
          "name": "FeatureExtractor/MobilenetV2/expanded_conv/depthwise/depthwise_weights"
        },
        {
          "shape": [
            32
          ],
          "dtype": "float32",
          "name": "FeatureExtractor/MobilenetV2/expanded_conv/depthwise/BatchNorm/batchnorm/mul"
        },
        {
          "shape": [
            32
          ],
          "dtype": "float32",
          "name": "FeatureExtractor/MobilenetV2/expanded_conv/depthwise/BatchNorm/batchnorm/sub"
        },
        {
          "shape": [
            1,
            1,
            32,
            16
          ],
          "dtype": "float32",
          "name": "FeatureExtractor/MobilenetV2/expanded_conv/project/Conv2D/merged_input"
        },
        {
          "shape": [
            16
          ],
          "dtype": "float32",
          "name": "FeatureExtractor/MobilenetV2/expanded_conv/project/BatchNorm/batchnorm/sub"
        },
        {
          "shape": [
            1,
            1,
            16,
            96
          ],
          "dtype": "float32",
          "name": "FeatureExtractor/MobilenetV2/expanded_conv_1/expand/Conv2D/merged_input"
        },
        {
          "shape": [
            96
          ],
          "dtype": "float32",
          "name": "FeatureExtractor/MobilenetV2/expanded_conv_1/expand/BatchNorm/batchnorm/sub"
        },
        {
          "shape": [
            3,
            3,
            96,
            1
          ],
          "dtype": "float32",
          "name": "FeatureExtractor/MobilenetV2/expanded_conv_1/depthwise/depthwise_weights"
        },
        {
          "shape": [
            96
          ],
          "dtype": "float32",
          "name": "FeatureExtractor/MobilenetV2/expanded_conv_1/depthwise/BatchNorm/batchnorm/mul"
        },
        {
          "shape": [
            96
          ],
          "dtype": "float32",
          "name": "FeatureExtractor/MobilenetV2/expanded_conv_1/depthwise/BatchNorm/batchnorm/sub"
        },
        {
          "shape": [
            1,
            1,
            96,
            24
          ],
          "dtype": "float32",
          "name": "FeatureExtractor/MobilenetV2/expanded_conv_1/project/Conv2D/merged_input"
        },
        {
          "shape": [
            24
          ],
          "dtype": "float32",
          "name": "FeatureExtractor/MobilenetV2/expanded_conv_1/project/BatchNorm/batchnorm/sub"
        },
        {
          "shape": [
            1,
            1,
            24,
            144
          ],
          "dtype": "float32",
          "name": "FeatureExtractor/MobilenetV2/expanded_conv_3/expand/Conv2D/merged_input"
        },
        {
          "shape": [
            144
          ],
          "dtype": "float32",
          "name": "FeatureExtractor/MobilenetV2/expanded_conv_3/expand/BatchNorm/batchnorm/sub"
        },
        {
          "shape": [
            3,
            3,
            144,
            1
          ],
          "dtype": "float32",
          "name": "FeatureExtractor/MobilenetV2/expanded_conv_3/depthwise/depthwise_weights"
        },
        {
          "shape": [
            144
          ],
          "dtype": "float32",
          "name": "FeatureExtractor/MobilenetV2/expanded_conv_3/depthwise/BatchNorm/batchnorm/mul"
        },
        {
          "shape": [
            144
          ],
          "dtype": "float32",
          "name": "FeatureExtractor/MobilenetV2/expanded_conv_3/depthwise/BatchNorm/batchnorm/sub"
        },
        {
          "shape": [
            1,
            1,
            144,
            32
          ],
          "dtype": "float32",
          "name": "FeatureExtractor/MobilenetV2/expanded_conv_3/project/Conv2D/merged_input"
        },
        {
          "shape": [
            32
          ],
          "dtype": "float32",
          "name": "FeatureExtractor/MobilenetV2/expanded_conv_3/project/BatchNorm/batchnorm/sub"
        },
        {
          "shape": [
            1,
            1,
            32,
            192
          ],
          "dtype": "float32",
          "name": "FeatureExtractor/MobilenetV2/expanded_conv_6/expand/Conv2D/merged_input"
        },
        {
          "shape": [
            192
          ],
          "dtype": "float32",
          "name": "FeatureExtractor/MobilenetV2/expanded_conv_6/expand/BatchNorm/batchnorm/sub"
        },
        {
          "shape": [
            3,
            3,
            192,
            1
          ],
          "dtype": "float32",
          "name": "FeatureExtractor/MobilenetV2/expanded_conv_6/depthwise/depthwise_weights"
        },
        {
          "shape": [
            192
          ],
          "dtype": "float32",
          "name": "FeatureExtractor/MobilenetV2/expanded_conv_6/depthwise/BatchNorm/batchnorm/mul"
        },
        {
          "shape": [
            192
          ],
          "dtype": "float32",
          "name": "FeatureExtractor/MobilenetV2/expanded_conv_6/depthwise/BatchNorm/batchnorm/sub"
        },
        {
          "shape": [
            1,
            1,
            192,
            64
          ],
          "dtype": "float32",
          "name": "FeatureExtractor/MobilenetV2/expanded_conv_6/project/Conv2D/merged_input"
        },
        {
          "shape": [
            64
          ],
          "dtype": "float32",
          "name": "FeatureExtractor/MobilenetV2/expanded_conv_6/project/BatchNorm/batchnorm/sub"
        },
        {
          "shape": [
            1,
            1,
            64,
            384
          ],
          "dtype": "float32",
          "name": "FeatureExtractor/MobilenetV2/expanded_conv_10/expand/Conv2D/merged_input"
        },
        {
          "shape": [
            384
          ],
          "dtype": "float32",
          "name": "FeatureExtractor/MobilenetV2/expanded_conv_10/expand/BatchNorm/batchnorm/sub"
        },
        {
          "shape": [
            3,
            3,
            384,
            1
          ],
          "dtype": "float32",
          "name": "FeatureExtractor/MobilenetV2/expanded_conv_10/depthwise/depthwise_weights"
        },
        {
          "shape": [
            384
          ],
          "dtype": "float32",
          "name": "FeatureExtractor/MobilenetV2/expanded_conv_10/depthwise/BatchNorm/batchnorm/mul"
        },
        {
          "shape": [
            384
          ],
          "dtype": "float32",
          "name": "FeatureExtractor/MobilenetV2/expanded_conv_10/depthwise/BatchNorm/batchnorm/sub"
        },
        {
          "shape": [
            1,
            1,
            384,
            96
          ],
          "dtype": "float32",
          "name": "FeatureExtractor/MobilenetV2/expanded_conv_10/project/Conv2D/merged_input"
        },
        {
          "shape": [
            96
          ],
          "dtype": "float32",
          "name": "FeatureExtractor/MobilenetV2/expanded_conv_10/project/BatchNorm/batchnorm/sub"
        },
        {
          "shape": [
            1,
            1,
            96,
            576
          ],
          "dtype": "float32",
          "name": "FeatureExtractor/MobilenetV2/expanded_conv_13/expand/Conv2D/merged_input"
        },
        {
          "shape": [
            576
          ],
          "dtype": "float32",
          "name": "FeatureExtractor/MobilenetV2/expanded_conv_13/expand/BatchNorm/batchnorm/sub"
        },
        {
          "shape": [
            3,
            3,
            576,
            1
          ],
          "dtype": "float32",
          "name": "FeatureExtractor/MobilenetV2/expanded_conv_13/depthwise/depthwise_weights"
        },
        {
          "shape": [
            576
          ],
          "dtype": "float32",
          "name": "FeatureExtractor/MobilenetV2/expanded_conv_13/depthwise/BatchNorm/batchnorm/mul"
        },
        {
          "shape": [
            576
          ],
          "dtype": "float32",
          "name": "FeatureExtractor/MobilenetV2/expanded_conv_13/depthwise/BatchNorm/batchnorm/sub"
        },
        {
          "shape": [
            1,
            1,
            576,
            160
          ],
          "dtype": "float32",
          "name": "FeatureExtractor/MobilenetV2/expanded_conv_13/project/Conv2D/merged_input"
        },
        {
          "shape": [
            160
          ],
          "dtype": "float32",
          "name": "FeatureExtractor/MobilenetV2/expanded_conv_13/project/BatchNorm/batchnorm/sub"
        },
        {
          "shape": [
            1,
            1,
            160,
            960
          ],
          "dtype": "float32",
          "name": "FeatureExtractor/MobilenetV2/expanded_conv_16/expand/Conv2D/merged_input"
        },
        {
          "shape": [
            960
          ],
          "dtype": "float32",
          "name": "FeatureExtractor/MobilenetV2/expanded_conv_16/expand/BatchNorm/batchnorm/sub"
        },
        {
          "shape": [
            3,
            3,
            960,
            1
          ],
          "dtype": "float32",
          "name": "FeatureExtractor/MobilenetV2/expanded_conv_16/depthwise/depthwise_weights"
        },
        {
          "shape": [
            960
          ],
          "dtype": "float32",
          "name": "FeatureExtractor/MobilenetV2/expanded_conv_16/depthwise/BatchNorm/batchnorm/mul"
        },
        {
          "shape": [
            960
          ],
          "dtype": "float32",
          "name": "FeatureExtractor/MobilenetV2/expanded_conv_16/depthwise/BatchNorm/batchnorm/sub"
        },
        {
          "shape": [
            1,
            1,
            960,
            320
          ],
          "dtype": "float32",
          "name": "FeatureExtractor/MobilenetV2/expanded_conv_16/project/Conv2D/merged_input"
        },
        {
          "shape": [
            320
          ],
          "dtype": "float32",
          "name": "FeatureExtractor/MobilenetV2/expanded_conv_16/project/BatchNorm/batchnorm/sub"
        },
        {
          "shape": [
            1,
            1,
            320,
            1280
          ],
          "dtype": "float32",
          "name": "FeatureExtractor/MobilenetV2/Conv_1/Conv2D/merged_input"
        },
        {
          "shape": [
            1280
          ],
          "dtype": "float32",
          "name": "FeatureExtractor/MobilenetV2/Conv_1/BatchNorm/batchnorm/sub"
        },
        {
          "shape": [
            1,
            1,
            1280,
            256
          ],
          "dtype": "float32",
          "name": "FeatureExtractor/MobilenetV2/layer_19_1_Conv2d_2_1x1_256/Conv2D/merged_input"
        },
        {
          "shape": [
            256
          ],
          "dtype": "float32",
          "name": "FeatureExtractor/MobilenetV2/layer_19_1_Conv2d_2_1x1_256/BatchNorm/batchnorm/sub"
        },
        {
          "shape": [
            3,
            3,
            256,
            1
          ],
          "dtype": "float32",
          "name": "FeatureExtractor/MobilenetV2/layer_19_2_Conv2d_2_3x3_s2_512_depthwise/depthwise_weights"
        },
        {
          "shape": [
            256
          ],
          "dtype": "float32",
          "name": "FeatureExtractor/MobilenetV2/layer_19_2_Conv2d_2_3x3_s2_512_depthwise/BatchNorm/batchnorm/mul"
        },
        {
          "shape": [
            256
          ],
          "dtype": "float32",
          "name": "FeatureExtractor/MobilenetV2/layer_19_2_Conv2d_2_3x3_s2_512_depthwise/BatchNorm/batchnorm/sub"
        },
        {
          "shape": [
            1,
            1,
            256,
            512
          ],
          "dtype": "float32",
          "name": "FeatureExtractor/MobilenetV2/layer_19_2_Conv2d_2_3x3_s2_512/Conv2D/merged_input"
        },
        {
          "shape": [
            512
          ],
          "dtype": "float32",
          "name": "FeatureExtractor/MobilenetV2/layer_19_2_Conv2d_2_3x3_s2_512/BatchNorm/batchnorm/sub"
        },
        {
          "shape": [
            1,
            1,
            512,
            128
          ],
          "dtype": "float32",
          "name": "FeatureExtractor/MobilenetV2/layer_19_1_Conv2d_3_1x1_128/Conv2D/merged_input"
        },
        {
          "shape": [
            128
          ],
          "dtype": "float32",
          "name": "FeatureExtractor/MobilenetV2/layer_19_1_Conv2d_3_1x1_128/BatchNorm/batchnorm/sub"
        },
        {
          "shape": [
            3,
            3,
            128,
            1
          ],
          "dtype": "float32",
          "name": "FeatureExtractor/MobilenetV2/layer_19_2_Conv2d_3_3x3_s2_256_depthwise/depthwise_weights"
        },
        {
          "shape": [
            128
          ],
          "dtype": "float32",
          "name": "FeatureExtractor/MobilenetV2/layer_19_2_Conv2d_3_3x3_s2_256_depthwise/BatchNorm/batchnorm/mul"
        },
        {
          "shape": [
            128
          ],
          "dtype": "float32",
          "name": "FeatureExtractor/MobilenetV2/layer_19_2_Conv2d_3_3x3_s2_256_depthwise/BatchNorm/batchnorm/sub"
        },
        {
          "shape": [
            1,
            1,
            128,
            256
          ],
          "dtype": "float32",
          "name": "FeatureExtractor/MobilenetV2/layer_19_2_Conv2d_3_3x3_s2_256/Conv2D/merged_input"
        },
        {
          "shape": [
            256
          ],
          "dtype": "float32",
          "name": "FeatureExtractor/MobilenetV2/layer_19_2_Conv2d_3_3x3_s2_256/BatchNorm/batchnorm/sub"
        },
        {
          "shape": [
            1,
            1,
            256,
            128
          ],
          "dtype": "float32",
          "name": "FeatureExtractor/MobilenetV2/layer_19_1_Conv2d_4_1x1_128/Conv2D/merged_input"
        },
        {
          "shape": [
            128
          ],
          "dtype": "float32",
          "name": "FeatureExtractor/MobilenetV2/layer_19_1_Conv2d_4_1x1_128/BatchNorm/batchnorm/sub"
        },
        {
          "shape": [
            3,
            3,
            128,
            1
          ],
          "dtype": "float32",
          "name": "FeatureExtractor/MobilenetV2/layer_19_2_Conv2d_4_3x3_s2_256_depthwise/depthwise_weights"
        },
        {
          "shape": [
            128
          ],
          "dtype": "float32",
          "name": "FeatureExtractor/MobilenetV2/layer_19_2_Conv2d_4_3x3_s2_256_depthwise/BatchNorm/batchnorm/mul"
        },
        {
          "shape": [
            128
          ],
          "dtype": "float32",
          "name": "FeatureExtractor/MobilenetV2/layer_19_2_Conv2d_4_3x3_s2_256_depthwise/BatchNorm/batchnorm/sub"
        },
        {
          "shape": [
            1,
            1,
            128,
            256
          ],
          "dtype": "float32",
          "name": "FeatureExtractor/MobilenetV2/layer_19_2_Conv2d_4_3x3_s2_256/Conv2D/merged_input"
        },
        {
          "shape": [
            256
          ],
          "dtype": "float32",
          "name": "FeatureExtractor/MobilenetV2/layer_19_2_Conv2d_4_3x3_s2_256/BatchNorm/batchnorm/sub"
        },
        {
          "shape": [
            1,
            1,
            256,
            64
          ],
          "dtype": "float32",
          "name": "FeatureExtractor/MobilenetV2/layer_19_1_Conv2d_5_1x1_64/Conv2D/merged_input"
        },
        {
          "shape": [
            64
          ],
          "dtype": "float32",
          "name": "FeatureExtractor/MobilenetV2/layer_19_1_Conv2d_5_1x1_64/BatchNorm/batchnorm/sub"
        },
        {
          "shape": [
            3,
            3,
            64,
            1
          ],
          "dtype": "float32",
          "name": "FeatureExtractor/MobilenetV2/layer_19_2_Conv2d_5_3x3_s2_128_depthwise/depthwise_weights"
        },
        {
          "shape": [
            64
          ],
          "dtype": "float32",
          "name": "FeatureExtractor/MobilenetV2/layer_19_2_Conv2d_5_3x3_s2_128_depthwise/BatchNorm/batchnorm/mul"
        },
        {
          "shape": [
            64
          ],
          "dtype": "float32",
          "name": "FeatureExtractor/MobilenetV2/layer_19_2_Conv2d_5_3x3_s2_128_depthwise/BatchNorm/batchnorm/sub"
        },
        {
          "shape": [
            1,
            1,
            64,
            128
          ],
          "dtype": "float32",
          "name": "FeatureExtractor/MobilenetV2/layer_19_2_Conv2d_5_3x3_s2_128/Conv2D/merged_input"
        },
        {
          "shape": [
            128
          ],
          "dtype": "float32",
          "name": "FeatureExtractor/MobilenetV2/layer_19_2_Conv2d_5_3x3_s2_128/BatchNorm/batchnorm/sub"
        },
        {
          "shape": [
            1
          ],
          "dtype": "int32",
          "name": "Postprocessor/strided_slice/stack"
        },
        {
          "shape": [
            1
          ],
          "dtype": "int32",
          "name": "Postprocessor/strided_slice/stack_1"
        },
        {
          "shape": [],
          "dtype": "int32",
          "name": "BoxPredictor_5/stack/1"
        },
        {
          "shape": [],
          "dtype": "int32",
          "name": "BoxPredictor_0/stack_1/2"
        },
        {
          "shape": [],
          "dtype": "int32",
          "name": "Postprocessor/Tile/multiples/1"
        },
        {
          "shape": [
            3
          ],
          "dtype": "int32",
          "name": "Postprocessor/Slice/begin"
        },
        {
          "shape": [
            3
          ],
          "dtype": "int32",
          "name": "Postprocessor/Slice/size"
        },
        {
          "shape": [],
          "dtype": "int32",
          "name": "Preprocessor/map/while/ResizeImage/ExpandDims/dim"
        },
        {
          "shape": [
            2
          ],
          "dtype": "int32",
          "name": "Preprocessor/map/while/ResizeImage/stack"
        },
        {
          "shape": [],
          "dtype": "int32",
          "name": "Preprocessor/map/while/add/y"
        },
        {
          "shape": [
            2
          ],
          "dtype": "int32",
          "name": "Postprocessor/Decode/transpose/sub_1"
        },
        {
          "shape": [
            2
          ],
          "dtype": "int32",
          "name": "Postprocessor/Decode/get_center_coordinates_and_sizes/transpose/sub_1"
        },
        {
          "shape": [
            2
          ],
          "dtype": "int32",
          "name": "Postprocessor/Decode/transpose_1/sub_1"
        }
      ],
      "paths": [
        "group1-shard1of5",
        "group1-shard2of5",
        "group1-shard3of5",
        "group1-shard4of5",
        "group1-shard5of5"
      ]
    }
  ]
}